maldet/app/src/main/ml/fypizma_model.tflite (tflite, 355368 bytes, 5 tensors)

arith.constant f4 [1, 128]
0.18421687 0.16945012 0.16185693 -0.16152117 -0.06929188 -0.07093371 -0.2468829 0.09320595
-0.18374246 -0.0683463 -0.169381 0.032098792 0.16523491 -0.1431099 -0.13699846 0.17575586
-0.036626257 -0.11620753 -0.027755765 0.064609826 -0.18606707 0.09149408 -0.12290654 0.19385418
0.1720626 -0.14784615 0.20978257 -0.10871242 -0.19349204 -0.15323639 -0.0030085659 0.076070875
0.23195793 0.21902713 0.07362812 -0.1233532 0.20537464 -0.15499038 0.22988838 -0.05185812
0.23384546 0.18601325 -0.13079067 0.10553762 -0.081056185 0.18061563 0.22517426 0.21297625
0.033103064 0.18286604 -0.093891695 0.16761859 0.10042962 0.18356773 0.19366243 0.20329508
-0.21155961 -0.032184392 0.14558792 -0.17160839 0.1976974 -0.0052023246 -0.10274561 -0.20040089
-0.13130906 0.1481807 0.13563193 -0.06786696 0.15228422 -0.10855762 0.16794063 0.15448385
0.09645922 0.23218378 -0.0839293 -0.13618805 0.20494957 -0.23203306 0.0914714 0.12217246
-0.09030534 -0.12853009 0.06374243 0.041743435 -0.20987321 -0.113179974 -0.18844263 0.1774414
-0.058135357 -0.069234274 0.09541272 -0.035579607 0.1440717 0.1122203 0.12781188 0.10609554
0.17213705 -0.09490614 0.05175524 0.1502103 -0.07615902 -0.14664158 -0.1397522 0.15210554
-0.048229024 -0.1120337 0.07180604 0.012243237 0.22888312 0.2297868 0.120375104 0.09513494
-0.053833812 -0.20279709 0.20725882 -0.011546585 -0.028623782 0.12214961 0.19695568 0.20174399
-0.06165881 -0.116675675 -0.18582676 -0.038172398 -0.17278546 -0.14797688 -0.043729756 -0.026264727
00000000: 59a3 3c3e 5584 2d3e d3bd 253e ce65 25be
00000010: e7e8 8dbd b145 91bd dfce 7cbe c3e2 be3d
00000020: fc26 3cbe 25f9 8bbd 3672 2dbe 067a 033d
00000030: 5733 293e 678b 12be 5349 0cbe 58f9 333e
00000040: 6a05 16bd 37fe edbd 0f60 e3bc 2852 843d
00000050: 5e88 3ebe 4061 bb3d 6db6 fbbd b681 463e
00000060: 2e31 303e fb64 17be 3ed1 563e 9ea4 debd
00000070: c722 46be 00ea 1cbe 5c2b 45bb 0ccb 9b3d
00000080: 6186 6d3e a648 603e 57ca 963d 9aa0 fcbd
00000090: bb4d 523e ccb5 1ebe dc67 6b3e 2e69 54bd
000000a0: 2f75 6f3e 427a 3e3e fded 05be 1c24 d83d
000000b0: c900 a6bd 4ef3 383e 1594 663e 7216 5a3e
000000c0: 1497 073d 3c41 3b3e 4a4a c0bd 35a4 2b3e
000000d0: 0bae cd3d 2ef9 3b3e 724f 463e 962c 503e
000000e0: 15a3 58be c8d3 03bd 0015 153e 1cba 2fbe
000000f0: 3071 4a3e 4378 aabb 4a6c d2bd e435 4dbe
00000100: e275 06be aebc 173e 19e3 0a3e d5fd 8abd
00000110: 65f0 1b3e 7553 debd a1f8 2b3e 0431 1e3e
00000120: 698c c53d 96c1 6d3e 20e3 abbd e174 0bbe
00000130: 4dde 513e 139a 6dbe 5b55 bb3d 8e35 fa3d
00000140: 02f2 b8bd 649d 03be 648b 823d 2afb 2a3d
00000150: 01e9 56be e7ca e7bd 1bf7 40be 33b3 353e
00000160: 571f 6ebd b3ca 8dbd bf67 c33d ecbb 11bd
00000170: 8887 133e c2d3 e53d 1ee1 023e 9e48 d93d
00000180: b244 303e 265e c2bd 4dfd 533d bbd0 193e
00000190: 43f9 9bbd 3629 16be 331b 0fbe 8ec1 1b3e
000001a0: cc8b 45bd ed71 e5bd 0c0f 933d dc97 483c
000001b0: 5660 6a3e 3b4d 6b3e 3987 f63d 1cd6 c23d
000001c0: d880 5cbd 0aaa 4fbe a83b 543e e32d 3dbc
000001d0: 6c7c eabc 9329 fa3d c0ae 493e fa95 4e3e
000001e0: f38d 7cbd a8f3 eebd 5f49 3ebe a95a 1cbd
000001f0: acee 30be 4087 17be f91d 33bd 2029 d7bc

arith.constant1 f4 [128, 256]
-0.061799727 -0.051712412 -0.15325305 -0.13297085 0.076833345 -0.07270495 0.07698385 -0.040753465
-0.016733713 0.00093394186 -0.014898609 0.06454938 -0.021419747 -0.056982145 -0.035205588 -0.08317007
0.03804337 -0.030282877 0.15580563 -0.13645934 -0.042009134 -0.008351863 0.145742 0.10663793
-0.10995328 -0.13758464 -0.004627995 0.07241136 -0.024536889 0.03977362 0.021927288 0.02243196
0.006972745 -0.025168007 0.033702847 0.033956278 -0.04051921 -0.075304486 0.063083224 0.065640256
-0.12179154 0.0060184663 -0.0067746853 -0.17745183 0.09194669 0.08494799 0.041552637 0.0784074
-0.1456377 -0.019311327 -0.07902326 0.047778573 0.120865375 -0.06951509 0.059864208 0.02940759
0.043857023 0.072807364 -0.06540056 0.12570924 0.05842012 -0.033270158 -0.013093076 0.004250191
-0.060594887 0.09167079 0.07253797 -0.1543124 0.09065965 -0.102717124 -0.072562605 0.04764874
0.07225449 -0.15473387 0.0728907 -0.10641102 -0.048870407 0.1313251 -0.01721144 0.07251799
-0.09606111 -0.10316769 0.10838001 -0.005263287 0.09332005 -0.06970632 -0.053344455 -0.052675802
0.05431579 -0.03400743 -0.13635118 -0.11717982 -0.10443685 0.016211132 -0.040630795 -0.11974514
-0.03614378 0.13507268 0.02763116 -0.105090044 0.011712648 0.15816277 -0.003483189 0.045561645
-0.09705666 -0.12641835 -0.008976811 0.126176 0.0688202 0.13455659 -0.10625544 0.08924508
-0.08066706 -0.14701414 0.07321602 0.046147916 0.0063434276 0.069822 -0.09356624 0.041825242
-0.10797737 0.023779972 0.11582737 0.051051263 -0.08951221 0.045788243 -0.018194785 0.05443325
0.041303027 -0.07923927 -0.10572371 -0.050978817 0.027096193 -0.07272183 0.059386518 -0.04162843
-0.05988951 0.11127693 0.035868496 0.023169596 0.07459462 -0.09521097 -0.010127635 0.023018528
-0.086326316 0.08442174 -0.08035704 0.07378305 -0.1542956 -0.1353008 -0.121018104 -0.14125687
-0.0018574359 0.021176456 -0.018450223 0.00010115696 -0.17606188 -0.09807564 -0.11179519 0.08126049
-0.08721354 0.001718935 0.062469468 0.052570414 -0.08759414 -0.06127592 -0.13239121 0.10067881
-0.024048595 -0.14898917 0.051772892 -0.023610616 -0.14037442 0.022764878 0.10170771 -0.09044046
0.022028113 -0.103014365 0.025439765 -0.0019574675 0.017480856 -0.03357695 0.015562105 -0.04774692
-0.0030035437 0.011539986 0.03742939 -0.082559824 0.07882624 0.04018537 -0.02408493 0.1043832
-0.18067104 -0.07216543 0.04331395 0.016846338 -0.10983239 0.051598437 0.0142187225 -0.040390737
0.076234095 -0.007997718 0.028467542 -0.0677097 -0.027817938 -0.03965356 -0.09212995 0.052107055
-0.114792794 -0.038912084 -0.09247117 0.093892835 -0.13422243 -0.052336577 0.1070969 0.10372635
-0.12651189 0.110492446 -0.05380176 0.073387444 -0.12326821 0.022473145 -0.05515015 -0.012334207
-0.057486236 -0.049264472 0.08597158 -0.094039224 0.04904524 -0.094950646 -0.060455173 0.095537
-0.09435855 -0.016552852 -0.119931035 0.060498334 -0.0705779 0.1177913 -0.13412184 -0.1256542
-0.14679797 0.06931219 0.09343774 0.00857226 0.113878556 -0.056969788 0.08046808 0.044973176
-0.019711645 0.0825114 -0.01624011 0.04487929 0.10153845 -0.08878984 0.023354363 -0.052812338
00000000: b621 7dbd 65d0 53bd 5eee 1cbe 8329 08be
00000010: cd5a 9d3d 55e6 94bd b5a9 9d3d 1bed 26bd
00000020: 2415 89bc c7d3 743a 4c19 74bc 7732 843d
00000030: 7778 afbc 1c66 69bd bc33 10bd 1255 aabd
00000040: 5dd3 1b3d cc13 f8bc 838b 1f3e ffbb 0bbe
00000050: c511 2cbd 41d6 08bc 643d 153e fd64 da3d
00000060: 2f2f e1bd fde2 0cbe 70a6 97bb 684c 943d
00000070: 9601 c9bc aae9 223d dba0 b33c 3bc3 b73c
00000080: a07b e43b 232d cebc ff0b 0a3d bd15 0b3d
00000090: 79f7 25bd 3d39 9abd c731 813d 666e 863d
000000a0: d86d f9bd 8e36 c53b 2efe ddbb efb5 35be
000000b0: 8c4e bc3d 36f9 ad3d 1933 2a3d 0f94 a03d
000000c0: 0d22 15be ca32 9ebc f2d6 a1bd 77b3 433d
000000d0: 4488 f73d ed5d 8ebd 2c34 753d 30e8 f03c
000000e0: 6ca3 333d 071c 953d bbf0 85bd ecb9 003e
000000f0: f049 6f3d 4a46 08bd 5784 56bc 3045 8b3b
00000100: 5832 78bd e5bd bb3d ca8e 943d 1204 1ebe
00000110: c4ab b93d 5b5d d2bd b49b 94bd 532b 433d
00000120: 29fa 933d 8e72 1ebe b847 953d 05ee d9bd
00000130: 562c 48bd 167a 063e 01ff 8cbc 5084 943d
00000140: b0bb c4bd 9549 d3bd 57f6 dd3d a777 acbb
00000150: 951e bf3d 30c2 8ebd b77f 5abd 95c2 57bd
00000160: 3c7a 5e3d 604b 0bbd a59f 0bbe f9fb efbd
00000170: fde2 d5bd 35cd 843c 7a6c 26bd f13c f5bd
00000180: 800b 14bd 7e50 0a3e be5a e23c 7339 d7bd
00000190: 68e6 3f3c 6cf5 213e 3746 64bb d99e 3a3d
000001a0: a4c5 c6bd d073 01be 7913 13bc 4834 013e
000001b0: 9bf1 8c3d 34c9 093e 749c d9bd 20c6 b63d
000001c0: c634 a5bd e08a 16be 48f2 953d 9905 3d3d
000001d0: 87dc cf3b d6fe 8e3d a89f bfbd f250 2b3d
000001e0: 3d23 ddbd 37ce c23c e636 ed3d 211b 513d
000001f0: 2d52 b7bd 748c 3b3d 3b0d 95bc 66f5 5e3d
00000200: 5d2d 293d 3348 a2bd ac85 d8bd 2acf 50bd
00000210: d6f8 dd3c 2fef 94bd 473f 733d 9382 2abd
00000220: b44e 75bd 29e5 e33d d8ea 123d 2ace bd3c
00000230: 10c5 983d f8fd c2bd 61ee 25bc 5a91 bc3c
00000240: dacb b0bd 4ee5 ac3d 3b92 a4bd 911b 973d
00000250: aaff 1dbe 4b8c 0abe 57d8 f7bd a4a5 10be
00000260: 3575 f3ba 3f7a ad3c ec24 97bc 3b24 d438
00000270: 9149 34be e2db c8bd e0f4 e4bd e66b a63d
00000280: 039d b2bd e34d e13a fcdf 7f3d 1354 573d
00000290: 8e64 b3bd 76fc 7abd 9091 07be b130 ce3d
000002a0: 8f01 c5bc 9e90 18be d00f 543d 0d6b c1bc
000002b0: 50be 0fbe 697d ba3c 224c d03d d938 b9bd
000002c0: 4d74 b43c 32f9 d2bd 0e67 d03c db48 00bb
000002d0: 0334 8f3c fc87 09bd 33f8 7e3c 4692 43bd
000002e0: 1ad7 44bb 3612 3d3c 8f4f 193d 2015 a9bd
000002f0: a76f a13d 6a99 243d c24d c5bc dcc6 d53d
00000300: d401 39be 78cb 93bd f869 313d 5501 8a3c
00000310: ceef e0bd e258 533d a5f5 683c c270 25bd
00000320: 9f20 9c3d dc08 03bc c334 e93c 62ab 8abd
00000330: 72e2 e3bc c56b 22bd a1ae bcbd 356e 553d
00000340: 7c18 ebbd 4762 1fbd 8661 bdbd e34a c03d
00000350: 9b71 09be e15e 56bd 9f55 db3d 7b6e d43d
00000360: 558c 01be dd49 e23d 3c5f 5cbd 284c 963d
00000370: 0b74 fcbd 9a19 b83c 20e5 61bd 6a15 4abc
00000380: b076 6bbd 8bc9 49bd de11 b03d a397 c0bd
00000390: a9e3 483d 7c75 c2bd d89f 77bd e7a8 c33d
000003a0: 0e3f c1bd d999 87bc 679e f5bd 1acd 773d
000003b0: 258b 90bd 913c f13d 3c57 09be 7fab 00be
000003c0: 3552 16be 8df3 8d3d 495c bf3d aa72 0c3c
000003d0: 2939 e93d 2759 69bd 73cc a43d cb35 383d
000003e0: 517a a1bc bdfb a83d fb09 85bc 59d3 373d
000003f0: 64f3 cf3d 73d7 b5bd a651 bf3c c051 58bd

arith.constant3 f4 [128]
-0.00811131 0.0056728018 -0.0049677207 0.015231987 -0.00070617173 0.0046543456 0.011986753 -0.0018848224
0.019970553 0.013087287 0.023219723 0.017187165 -0.02280515 0.03991356 0.03802497 0.010521329
0.012981672 0.020101685 0.024907338 -0.0024173793 0.0010359623 -0.00171117 -0.0019562463 0.004436993
0.044396147 -0.017132977 0.017781762 0.009692833 0.03710453 -0.009539371 -0.0139049385 -0.015300838
-0.013078709 0.022583382 0.0032609177 0.03909649 0.008736993 0.01252529 0.018357875 0.0108794
0.0054157744 0.03187074 0.030406298 0.004761618 0.01353957 -0.008048195 0.025654156 -0.005831827
0.014456034 0.027612634 0.015473065 0.041898694 0.016152885 0.01789394 0.013717498 -0.0060391473
0.014360936 0.011655035 0.0006164755 0.028295489 0.0103670675 -0.030927548 0.016462147 -0.018576192
0.029007241 0.03876006 0.01196902 0.041555937 0.019528069 -0.014606949 -0.025858944 0.013414434
-0.023978187 0.0015757829 0.031457976 0.028987948 0.008479818 0.033194277 0.036375035 0.012888931
0.012506928 0.008911367 0.0054029385 -0.015217076 0.01453386 0.037625294 0.0030115824 0.050368298
0.045798656 0.022120716 0.01780219 0.023992416 0.010155724 -0.009467108 -0.006568553 0.005829247
0.0323533 0.019425875 0.0024834345 0.019281937 0.0127599295 -0.0003807593 -0.019404314 0.021737227
-0.014504773 0.046409566 -0.011144931 -0.0009020862 0.022911062 0.011450854 0.015570242 -0.017261758
0.003579418 0.02112135 0.018496025 -0.02473984 -0.016860936 0.036447175 0.014827407 -0.00026699388
0.0058474857 -0.03331182 0.014286963 0.009139215 0.0043453947 0.013401618 0.010648375 0.036060408
00000000: 4de5 04bc e9e2 b93b 43c8 a2bb 968f 793c
00000010: 621e 39ba 7b83 983b 1664 443c 250c f7ba
00000020: 4999 a33c 0f6c 563c 4a37 be3c 19cc 8c3c
00000030: ded1 babc 677c 233d 12c0 1b3d a761 2c3c
00000040: 14b1 543c 4aac a43c 790a cc3c e56c 1ebb
00000050: 20c9 873a 5649 e0ba 5e34 00bb 3264 913b
00000060: bcd8 353d 755a 8cbc 0fab 913c b0ce 1e3c
00000070: ebfa 173d 064b 1cbc 8ad1 63bc 5eb0 7abc
00000080: 1548 56bc c900 b93c 1fb5 553b a423 203d
00000090: 9b25 0f3c e036 4d3c 4163 963c 833f 323c
000000a0: cf76 b13b e58a 023d a116 f93c 5907 9c3b
000000b0: 13d5 5d3c 94dc 03bc aa28 d23c e918 bfbb
000000c0: 00d9 6c3c e433 e23c bd82 7d3c f79d 2b3d
000000d0: 0e53 843c 5096 923c 5bbf 603c 0ae4 c5bb
000000e0: 224a 6b3c c3f4 3e3c f89a 213a f1cb e73c
000000f0: a2da 293c c55b fdbc a0db 863c 192d 98bc
00000100: 98a0 ed3c dec2 1e3d b519 443c 8f36 2a3d
00000110: 54f9 9f3c fc51 6fbc 23d6 d3bc 37c8 5b3c
00000120: e76d c4bc 808a ce3a 14da 003d 2278 ed3c
00000130: efee 0a3c b9f6 073d fdfd 143d 182c 533c
00000140: dce9 4c3c fb00 123c 220b b13b 0b51 79bc
00000150: 6d1f 6e3c fb1c 1a3d f85d 453b fd4e 4e3d
00000160: 5f97 3b3d 8136 b53c e6d5 913c be8b c43c
00000170: 3264 263c ee1b 1bbc 043d d7bb 4503 bf3b
00000180: e584 043d 0323 9f3c 1ec1 223b 27f5 9d3c
00000190: 060f 513c a6a0 c7b9 ccf5 9ebc 4512 b23c
000001a0: 6da5 6dbc f517 3e3d 3b99 36bc fb79 6cba
000001b0: fbaf bb3c 5d9c 3b3c 541a 7f3c 8868 8dbc
000001c0: ab94 6a3b ae06 ad3c fa84 973c 34ab cabc
000001d0: f21f 8abc a249 153d a7ee 723c 50fb 8bb9
000001e0: 449c bf3b fa71 08bd de13 6a3c a5bc 153c
000001f0: d063 8e3b 7692 5b3c 8676 2e3c 14b4 133d

sequential_6_1/dense_18_1/BiasAdd/ReadVariableOp f4 [256]
-0.02363246 -0.031658895 -0.033887867 0.01594018 -0.0012048235 -0.002409919 -0.016760666 -0.055876423
-0.034308996 -0.013986702 -0.022605782 -0.05788249 -0.0115018 0.0038752658 -0.03295926 -6.729437e-05
-0.012355872 -0.0025895517 -0.029717188 -0.032386385 -0.038142584 -0.028463325 -0.028144598 -0.049056895
-0.011858613 0.0021985872 -0.050194934 -0.015533655 -0.00037895085 0.0025167223 -0.022358825 0.0065163267
-0.024948223 -0.040348202 0.02165362 0.011519534 -0.010494592 -0.027280109 -0.00983294 -0.034685057
-0.02449538 -0.052781966 -0.045040835 -0.011187036 -0.006642007 -0.010008069 0.0040331203 0.008930892
0.0027886634 -0.022359598 -0.026173186 -0.048176654 -0.056741357 -0.0049877446 -0.025955217 0.0128684165
-0.022121726 -0.05335543 -0.04001287 -0.03324654 -0.024267148 -0.05272107 -0.03578134 0.039658386
-0.0509845 0.019531382 0.005101951 0.032103617 -0.062498715 0.014972452 -0.013547623 -0.029282348
-0.031162227 -0.020566612 -0.015050829 -0.016889969 0.013184636 -0.033203762 -0.021258734 -0.028843839
-0.035818346 -0.06079957 -0.024996724 -0.020662514 -0.022866352 -0.026949601 -0.0023266338 -0.059746247
-0.008000639 -0.018257339 -0.035541307 0.020667687 -0.008658586 -0.0227806 -0.016827252 -0.038541276
-0.017083265 -0.0033059162 -0.034298845 -0.028260678 -0.015579946 -0.018159451 -0.055217035 0.006427242
-0.028436689 -0.0213559 -0.059205096 -0.060537905 -0.03572562 -0.00758334 -0.041781854 -0.011859124
-0.0118462555 -0.028197518 -0.008054006 -0.0024692963 -0.0076087336 -0.021801218 0.018175265 -0.051095728
-0.044562157 -0.006832234 -0.017603323 -0.023742523 0.00607087 -0.007898986 0.0073698293 0.009789748
-0.042227328 -0.00018037771 -0.00115733 -0.0010305408 -0.02022069 -0.04176304 -0.021524923 -0.013546797
-0.029015262 -0.03562145 -0.062265866 0.006111994 0.009778238 -0.028128574 -0.022751836 -0.041758526
-0.009736725 -0.05979513 -0.031094661 -0.045933478 0.011717301 -0.04941141 -0.040705662 0.0044822227
0.014562919 -0.026202248 0.016870668 -0.0014393893 -0.009887726 -0.016506936 -0.025410965 -0.05797085
-0.039328087 -0.03385585 -0.023348136 -0.054172635 -0.031561226 -0.058673825 0.045572486 -0.055784736
-0.022204269 -0.02059469 -0.02087133 0.009438468 -0.00072167336 -0.025943521 -0.05196419 -0.039924312
-0.037413776 -0.050373536 -0.026020776 -0.024305968 -0.011472022 -0.034565855 -0.024453882 0.039396476
-0.013088815 -0.028175982 0.0038630245 -0.048817135 -0.053077795 -0.00794386 -0.046523195 -0.048232395
0.021226749 -0.017906344 -0.038430225 -0.054547716 -0.0017333197 -0.016139245 0.013735221 -0.05999588
-0.06163578 -0.007415109 -0.056795973 -0.016382396 -0.015437855 0.03316358 -0.004144112 -0.03674378
-0.0010995525 0.011634407 -0.019006547 -0.011659077 -0.03226995 -0.03272083 -0.019958349 -0.060610894
-0.018346108 -0.004392498 -0.0012065247 -0.011301398 -0.019796537 -0.01581782 -0.022695469 -0.020754024
0.0028608541 -0.023443243 -0.001515773 -0.033764455 -0.013463359 0.032766756 0.02026707 -0.021243623
0.0023796265 -0.04037817 -0.013620027 -0.052247856 -0.017512124 -0.037100405 0.0018369914 -0.011787726
-0.0146882925 -0.03125197 -0.021261897 0.014474944 -0.05151101 0.015768321 0.021225227 -0.0178352
0.017071906 -0.03668345 0.024442485 -0.01866985 -0.024758803 -0.0013031272 -0.018876238 0.013665817
00000000: dc98 c1bc c2ac 01bd 01ce 0abd fb94 823c
00000010: 2beb 9dba bbef 1dbb aa4d 89bc adde 64bd
00000020: 9787 0cbd 7b28 65bc c32f b9bc 3116 6dbd
00000030: 0c72 3cbc 2cf8 7d3b 4a00 07bd 6420 8db8
00000040: 4970 4abc 78b5 29bb 7671 f3bc 96a7 04bd
00000050: 663b 1cbd eb2b e9bc 808f e6bc e2ef 48bd
00000060: a14a 42bc 2c16 103b 3499 4dbd df80 7ebc
00000070: ecad c6b9 98ef 243b db29 b7bc e986 d53b
00000080: 3760 ccbc 2844 25bd ef62 b13c 6dbc 3c3c
00000090: 82f1 2bbc 897a dfbc 571a 21bc eb11 0ebd
000000a0: 89aa c8bc e731 58bd bd7c 38bd d449 37bc
000000b0: 31a5 d9bb e2f8 23bc 4428 843b e052 123c
000000c0: 02c2 363b 7a2b b7bc 2669 d6bc e254 45bd
000000d0: a069 68bd 3c70 a3bb 09a0 d4bc 0dd6 523c
000000e0: 9f38 b5bc 398b 5abd 89e4 23bd 862d 08bd
000000f0: e6cb c6bc 0cf2 57bd 748f 12bd d570 223d
00000100: 20d5 50bd 4700 a03c 442e a73b 157f 033d
00000110: a7fe 7fbd 044f 753c d9f6 5dbc 89e1 efbc
00000120: ed47 ffbc 507b a8bc c197 76bc d55c 8abc
00000130: 5f04 583c ab00 08bd cc26 aebc ea49 ecbc
00000140: 42b6 12bd f808 79bd eec5 ccbc 6f44 a9bc
00000150: 3752 bbbc 69c5 dcbc 707a 18bb 7bb8 74bd
00000160: 1d15 03bc 6a90 95bc c393 11bd 484f a93c
00000170: bedc 0dbc 619e babc 4ed9 89bc 75dd 1dbd
00000180: 34f2 8bbc 12a8 58bb f27c 0cbd f082 e7bc
00000190: 0843 7fbc 21c3 94bc 422b 62bd 9d9b d23b
000001a0: 0ff4 e8bc 92f2 aebc 0b81 72bd 98f6 77bd
000001b0: 0755 12bd ab7d f8bb 7323 2bbd c54c 42bc
000001c0: cc16 42bc 7bfe e6bc f3f4 03bc ebd3 21bb
000001d0: af52 f9bb 7898 b2bc 4be4 943c c149 51bd
000001e0: cf86 36bd efe0 dfbb d834 90bc ae7f c2bc
000001f0: 26ee c63b c06a 01bc 9c7e f13b 2e65 203c
00000200: 90f6 2cbd c623 3db9 8db1 97ba 3613 87ba
00000210: dca5 a5bc b90f 2bbd 0955 b0bc 63f3 5dbc
00000220: 6ab1 edbc cce7 11bd 7e0a 7fbd 1f47 c83b
00000230: e734 203c e56d e6bc 0f62 babc fd0a 2bbd
00000240: c986 1fbc bdeb 74bd 3bba febc be24 3cbd
00000250: ecf9 3f3c 9e63 4abd fbba 26bd 9cdf 923b
00000260: 4f99 6e3c 19a6 d6bc 5b34 8a3c e4a9 bcba
00000270: 2100 22bc 8e39 87bc a82a d0bc d872 6dbd
00000280: 7d16 21bd 6fac 0abd 9744 bfbc 20e4 5dbd
00000290: 5846 01bd f753 70bd 37aa 3a3d 897e 64bd
000002a0: bae5 b5bc 32b6 a8bc 5afa aabc cea3 1a3c
000002b0: ae2e 3dba 8287 d4bc 67d8 54bd ad87 23bd
000002c0: 303f 19bd 7b54 4ebd 8629 d5bc 4f1d c7bc
000002d0: 26f5 3bbc ed94 0dbd 8253 c8bc 335e 213d
000002e0: 7872 56bc 51d1 e6bc cc2a 7d3b 7af4 47bd
000002f0: 1a68 59bd f726 02bc 1b8f 3ebd 558f 45bd
00000300: b8e3 ad3c 53b0 92bc 0369 1dbd 6d6d 5fbd
00000310: 8f30 e3ba 7336 84bc b109 613c 3dbe 75bd
00000320: cd75 7cbd 71fa f2bb e5a2 68bd 6034 86bc
00000330: 0fef 7cbc 89d6 073d 55cb 87bb a580 16bd
00000340: dc1e 90ba 3d9e 3e3c 9eb3 9bbc b705 3fbc
00000350: 7f2d 04bd 4706 06bd b17f a3bc 2143 78bd
00000360: 944a 96bc f2ee 8fbb 4024 9eba 8029 39bc
00000370: 592c a2bc 5f94 81bc d9eb b9bc 5804 aabc
00000380: 2b7d 3b3b 0b0c c0bc e7ac c6ba 994c 0abd
00000390: 6c95 5cbc 6f36 063d 2007 a63c 1b07 aebc
000003a0: 82f3 1b3b 9463 25bd 8926 5fbc d901 56bd
000003b0: 9675 8fbc 98f6 17bd 34c7 f03a 4e21 41bc
000003c0: 2aa7 70bc 1102 00bd 6e2d aebc 5128 6d3c
000003d0: 35fd 52bd 912c 813c 87e0 ad3c 201b 92bc
000003e0: 62da 8b3c 6341 16bd 9b3b c83c 83f1 98bc
000003f0: f9d2 cabc b1cd aaba 57a2 9abc 97e6 5f3c

sequential_6_1/dense_18_1/MatMul f4 [256, 215]
0.13236035 0.086878546 -0.01666403 0.010653045 0.043188144 -0.010303979 -0.012879028 0.017875014
-0.08751955 0.048144773 -0.038669106 0.069481246 0.023830066 -0.1300524 0.1325854 -0.069551595
0.086642705 -0.054567643 0.07531443 0.090710536 -0.08680575 0.09169126 -0.043132864 0.0037866016
-0.05987208 0.047195062 0.048848003 -0.034302894 -0.04670435 -0.100451015 0.076956704 -0.00022854928
-0.018601818 -0.043410104 -0.07778458 0.03509834 0.09132168 0.007461881 -0.15265854 0.031757083
0.08436413 -0.11482501 0.09038678 -0.035413362 -0.0030606342 0.07376285 -0.08016035 -0.054483853
-0.008393529 -0.03670411 0.023072703 -0.050270896 -0.11195723 -0.02171225 0.009111852 -0.025754204
-0.0368914 0.098858014 -6.945203e-05 0.06491661 0.06959306 -0.12371064 -0.055473275 0.013164497
-0.09119234 -0.0603868 0.09497073 0.034056365 -0.0971841 0.084520705 0.0691631 0.056049746
-0.0027406835 0.11338097 0.14259033 -0.048431844 -0.007842204 -0.12704861 0.07536623 -0.02217521
0.000494803 0.09252215 0.08554051 0.031162504 0.09309233 -0.022513276 -0.0035564094 0.033579085
0.050037343 0.09084653 -0.11646907 0.046301197 -0.05788003 0.1157623 -0.05382574 0.12363322
0.07682028 0.04748704 0.014054533 0.0012005923 -0.043296833 -0.08723294 0.07529482 -0.12399555
-0.09196111 0.0001924803 -0.026740815 -0.013029021 0.10120228 -0.08409452 -0.1553931 0.0878748
0.048047632 0.07029589 -0.09768786 0.04054271 0.015810337 0.042250223 -0.0070109754 0.089415774
-0.032868896 0.016935438 -0.055712294 -0.022022065 0.024866195 -0.023512261 -0.00080461055 -0.05353592
-0.07381208 -0.05869775 -0.10344658 0.11342224 -0.05934812 -0.07827104 0.084767446 0.0067032096
0.10001047 0.027068011 0.03441828 0.10142858 0.062362574 0.077718526 -0.06332756 0.07927003
-0.03988071 -0.042500082 0.110778 0.15568045 -0.10553946 0.07813282 0.02467159 -0.080495365
0.19013274 -0.07618762 -0.022565339 -0.095759004 -0.03836537 0.023109 0.028536955 -0.060643926
-0.045904562 0.010108527 -0.012077286 -0.13256407 0.15174991 -0.032234333 -0.039742727 -0.07571744
-0.08332048 -0.11385376 -0.006552161 0.021657435 0.0653374 0.056310944 0.0071820565 0.076080784
-0.0077929045 0.03709545 0.06285467 0.03200509 0.03810502 -0.09219509 0.045207646 -0.010895949
-2.8838485e-05 -0.01095449 0.082591884 -0.09325262 0.022708187 -0.06510463 0.09492388 -0.041909035
-0.06520736 -0.00980281 0.08685378 0.11109308 -0.07838105 -0.0797416 0.020407664 0.018624304
-0.0289557 0.03308444 0.04469823 -0.10720576 0.038511552 -0.086775206 -0.0179683 0.056394335
-0.049864642 -0.07680319 -0.030327376 -0.12811233 0.029882705 0.006353938 -0.0023802975 -0.020451695
-0.0066664997 -0.06707668 0.10392463 -0.07042896 0.06309661 -0.13963564 0.012431628 -0.0031953368
-0.037993174 0.16141072 -0.07885257 -0.11115197 0.04178565 0.13186352 -0.025681308 0.03866543
0.036953513 -0.05703523 0.02888725 0.052329045 -0.11354909 -0.030820692 0.16607864 0.07563715
-0.0351243 -0.061905112 0.05117618 0.032419622 0.03054375 -0.059610605 -0.011733278 0.0037887895
-0.0075159394 -0.16540588 0.105773 -0.016657274 -0.0011169994 -0.04877252 -0.06427106 0.075262174
00000000: 7989 073e 61ed b13d 0183 88bc 1c8a 2e3c
00000010: 0de6 303d 05d2 28bc 8f02 53bc 9f6e 923c
00000020: 733d b3bd 7433 453d 7f63 1ebd 2f4c 8e3d
00000030: 4537 c33c 752c 05be 78c4 073e 1171 8ebd
00000040: bb71 b13d 5282 5fbd 743e 9a3d 72c6 b93d
00000050: 37c7 b1bd a1c8 bb3d 16ac 30bd a228 783b
00000060: 6d3c 75bd 9c4f 413d d814 483d 3181 0cbd
00000070: 0f4d 3fbd 43b9 cdbd 7a9b 9d3d bba6 6fb9
00000080: d762 98bc cbce 31bd 864d 9fbd 47c3 0f3d
00000090: dc06 bb3d cb82 f43b 8552 1cbe b713 023d
000000a0: 1ac7 ac3d 6029 ebbd b41c b93d 9a0d 11bd
000000b0: ec94 48bb fa10 973d 1c2b a4bd 762a 5fbd
000000c0: 0385 09bc 0d57 16bd f702 bd3c dbe8 4dbd
000000d0: d549 e5bd e3dd b1bc e149 153c 7bfa d2bc
000000e0: 701b 17bd 1276 ca3d c6a6 91b8 00f3 843d
000000f0: ce86 8e3d 015c fdbd f237 63bd e7af 573c
00000100: 0dc3 babd 2658 77bd 0480 c23d b07e 0b3d
00000110: 7508 c7bd 3119 ad3d 62a5 8d3d 6b94 653d
00000120: 0a9d 33bb 4834 e83d 3303 123e 7860 46bd
00000130: 967c 00bc 0819 02be 9c59 9a3d c9a8 b5bc
00000140: abb5 013a 417c bd3d dd2f af3d 8248 ff3c
00000150: 31a7 be3d c36d b8bc a612 69bb 398a 093d
00000160: f5f3 4c3d bf0d ba3d 5687 eebd 53a6 3d3d
00000170: 9c13 6dbd c914 ed3d 6178 5cbd 6a33 fd3d
00000180: f353 9d3d c581 423d fc44 663c 315d 9d3a
00000190: 0558 31bd 2fa7 b2bd 2c34 9a3d 61f1 fdbd
000001a0: 1b56 bcbd 89d4 4939 8e0f dbbc ad77 55bc
000001b0: 2443 cf3d bf39 acbd 5e1f 1fbe b4f7 b33d
000001c0: 98cd 443d 4bf7 8f3d 9310 c8bd 1d10 263d
000001d0: ae84 813c 920e 2d3d 53bc e5bb 9e1f b73d
000001e0: 89a1 06bd 30bc 8a3c 9332 64bd 9e67 b4bc
000001f0: 31b4 cb3c c99c c0bc 80ec 52ba 7b48 5bbd
00000200: ca2a 97bd 0d6d 70bd cddb d3bd eb49 e83d
00000210: 0417 73bd 914c a0bd 8e9a ad3d 99a6 db3b
00000220: 4ad2 cc3d bcbd dd3c 2ffa 0c3d cab9 cf3d
00000230: e66f 7f3d e42a 9f3d e1b1 81bd 5358 a23d
00000240: f559 23bd 9114 2ebd 93df e23d b26a 1f3e
00000250: 1325 d8bd 1a04 a03d 131c ca3c c1da a4bd
00000260: 28b2 423e 4108 9cbd f2da b8bc 4c1d c4bd
00000270: 0225 1dbd 164f bd3c 55c6 e93c c465 78bd
00000280: 6c06 3cbd 3c9e 253c cfdf 45bc e0be 07be
00000290: 5464 1b3e 2608 04bd 45c9 22bd bf11 9bbd
000002a0: eea3 aabd 292c e9bd 83b3 d6bb ef6a b13c
000002b0: 9dcf 853d 4ea6 663d 7557 eb3b 3ed0 9b3d
000002c0: 9f5b ffbb 66f1 173d f3b9 803d c517 033d
000002d0: 0214 1c3d c8d0 bcbd a72b 393d ec84 32bc
000002e0: 2dea f1b7 767a 33bc ef25 a93d 3bfb bebd
000002f0: 8506 ba3c 9455 85bd 7467 c23d cfa8 2bbd
00000300: 708b 85bd f79b 20bc 65e0 b13d c584 e33d
00000310: 3e86 a0bd 904f a3bd f92d a73c ff91 983c
00000320: 8134 edbc 8d83 073d 7e15 373d b28e dbbd
00000330: 4abe 1d3d 33b7 b1bd 4232 93bc bffd 663d
00000340: de3e 4cbd fe4a 9dbd 1e71 f8bc e12f 03be
00000350: 93cc f43c b234 d03b c4fe 1bbb 508a a7bc
00000360: a772 dabb 805f 89bd 70d6 d43d 0f3d 90bd
00000370: cc38 813d a5fc 0ebe 07ae 4b3c db68 51bb
00000380: bb9e 1bbd da48 253e 757d a1bd a5a3 e3bd
00000390: 6e27 2b3d 3b07 073e 9b61 d2bc a45f 1e3d
000003a0: 915c 173d c69d 69bd f4a4 ec3c fb56 563d
000003b0: 6d8c e8bd ad7b fcbc 8510 2a3e a6e7 9a3d
000003c0: 7fde 0fbd 3790 7dbd 1d9e 513d 70ca 043d
000003d0: e336 fa3c 402a 74bd ef3c 40bc 574d 783b
000003e0: 4548 f6bb 2960 29be 849f d83d d674 88bc
000003f0: 4868 92ba b2c5 47bd 8ca0 83bd 0e23 9a3d
