maldet/app/src/main/ml/mlp_model.tflite (tflite, 355352 bytes, 5 tensors)

arith.constant f4 [1, 128]
-0.12849109 0.18294387 0.22559807 -0.19274084 0.036079753 -0.20981741 -0.13846369 0.16833085
-0.22949673 -0.1446411 -0.19959305 0.1600559 -0.166278 -0.06687759 -0.116831325 -0.091908
0.19058785 -0.061241474 0.021502249 -0.0013832968 -0.19415249 -0.1096187 0.07499485 0.14430097
0.06282141 -0.10261684 -0.18743739 -0.09142922 0.06335702 -0.095025346 0.115977794 0.16462813
-0.1257937 0.12189439 -0.18769471 -0.10977594 0.08373292 -0.184683 0.060169417 0.05576405
-0.080066726 0.05360398 -0.06344611 0.034009844 0.2170118 -0.030096386 -0.051894005 -0.13784
0.18078446 -0.08543876 -0.2159026 0.14836815 -0.21441232 -0.118773066 -0.12554413 -0.17006893
-0.10388029 -0.1235842 -0.015858218 -0.08528115 0.1628207 0.2155374 0.057558388 -0.21062517
0.009546085 0.09442442 0.15612826 -0.05505196 -0.0032604858 0.051106002 0.123731256 0.04160891
-0.062558465 -0.14023758 -0.12097682 -0.075614445 0.15821262 0.13474558 -0.059358884 0.106593326
0.03621046 -0.116008095 0.18259163 0.13562745 0.15571094 0.028879264 -0.17826763 -0.108223364
0.18607101 0.09390321 0.14099023 0.0028391138 -0.21708187 0.20084813 -0.1259677 0.05352057
0.21178257 0.0024058386 -0.11223617 0.12274403 0.06681097 -0.029654866 0.12923831 -0.20275925
0.1165703 -0.1116724 -0.1319408 0.024500975 0.21207598 0.16509755 -0.07241732 0.2136972
-0.0057571875 0.11133223 -0.14610091 -0.097261444 -0.05850038 -0.14389935 0.066786796 -0.030864092
-0.16248238 0.071281314 -0.22096774 0.123176984 0.046811562 0.10434731 0.014198918 -0.014017788
00000000: 2b93 03be a355 3b3e 2e03 673e db5d 45be
00000010: 5dc8 133d 60da 56be 6dc9 0dbe ec5e 2c3e
00000020: 3101 6bbe cc1c 14be 1f62 4cbe b2e5 233e
00000030: c844 2abe 1ef7 88bd 4345 efbd 433a bcbd
00000040: 7629 433e 57d8 7abd 7c25 b03c bd4f b5ba
00000050: e9cf 46be c57f e0bd e696 993d a2c3 133e
00000060: 83a8 803d c728 d2bd 96ef 3fbe 3e3f bbbd
00000070: 53c1 813d a69c c2bd c485 ed3d 4794 283e
00000080: 10d0 00be c4a3 f93d 0b33 40be 35d2 e0bd
00000090: 2a7c ab3d 8a1d 3dbe 3574 763d d868 643d
000000a0: 06fa a3bd d98f 5b3d 09f0 81bd e84d 0b3d
000000b0: 5738 5e3e b28c f6bc cf8e 54bd ee25 0dbe
000000c0: 901f 393e 84fa aebd 9215 5dbe d2ed 173e
000000d0: e78e 5bbe 4b3f f3bd a48e 00be 8d26 2ebe
000000e0: 31bf d4bd b719 fdbd 18e9 81bc e2a7 aebd
000000f0: 78ba 263e d6b5 5c3e 58c2 6b3d 20ae 57be
00000100: 2f67 1c3c 9761 c13d 16e0 1f3e 2a7e 61bd
00000110: e0ad 55bb 8754 513d d066 fd3d 1b6e 2a3d
00000120: a71e 80bd 719a 0fbe b2c2 f7bd bfdb 9abd
00000130: 7d02 223e bffa 093e 4d22 73bd 9a4d da3d
00000140: 6b51 143d a795 edbd 4df9 3a3e ece1 0a3e
00000150: b072 1f3e 3594 ec3c ca8b 36be 36a4 ddbd
00000160: 6689 3e3e 5350 c03d be5f 103e 6d10 3a3b
00000170: b64a 5ebe 22ab 4d3e adfd 00be 6338 5b3d
00000180: 88dd 583e 46ab 1d3b 14dc e5bd 3961 fb3d
00000190: 31d4 883d c3ee f2bc 0c57 043e 1fa0 4fbe
000001a0: 69bc ee3d 80b4 e4bd 7d1b 07be 45b6 c83c
000001b0: 722a 593e 550f 293e 884f 94bd 70d3 5a3e
000001c0: caa6 bcbb 2702 e43d 7a9b 15be 0231 c7bd
000001d0: 189e 6fbd 5a5a 13be 84c7 883d b1d6 fcbc
000001e0: c861 26be f0fb 913d 5e45 62be 3744 fc3d
000001f0: 7bbd 3f3d 0bb4 d53d 94a2 683c ddaa 65bc

arith.constant1 f4 [128, 256]
-0.04893539 0.12248906 -0.1071445 0.08028591 0.06535198 -0.0953991 -0.12255156 0.075273365
-0.12730323 -0.020885816 0.0773808 -0.00284157 -0.09455724 -0.10159027 -0.089205295 -0.10568751
0.070371486 -0.07760461 0.09794929 0.017096518 0.060507882 -0.027736627 0.13017482 -0.08980906
0.0009520165 0.093441755 0.12860484 -0.04718938 0.072916344 -0.12198448 -0.015309754 -0.041567866
0.07714467 -0.09061352 -0.083597794 -0.04256516 0.06544131 -0.12705463 0.056761615 0.053724892
-0.09644184 -0.044007756 0.047390483 0.06307732 0.013004376 -0.051260754 -0.018851655 -0.028659394
0.03880643 -0.0028496436 -0.12193947 -0.085908584 0.11237477 -0.09219133 -0.068225235 -0.05002441
-0.042227805 0.08745528 0.033090588 0.025869751 -0.025170358 0.12407581 -0.07670862 0.11789802
0.13566256 -0.12914276 0.03639961 -0.00718585 0.02700482 0.13818444 -0.031792413 -0.084105074
-0.0759679 0.07166041 0.00026365655 0.044110004 -0.079234004 0.027632385 0.11660835 0.0093558235
0.06443061 0.016563362 -0.09329971 -0.05339592 0.030599805 -0.085530296 -0.13509913 0.043729823
0.144413 0.0032446515 -0.106551684 -0.11973458 -0.10837849 -0.042837456 -0.007274954 -0.05151192
0.15108943 0.023924327 -0.036329795 -0.063821524 -0.0790279 0.015855376 -0.040216956 0.11870406
0.12538482 -0.031851266 -0.08466478 0.09344739 -0.071858466 -0.09124149 0.045174204 0.05836771
0.080594696 -0.050283834 -0.12209941 -0.07001461 -0.058546826 -0.010462642 -0.05772785 0.09900286
0.11788316 -0.094056204 -0.03981169 0.0006779523 -0.11872501 0.13023967 -0.07401923 0.09755951
0.11846458 0.012821121 -0.013990202 0.018544886 -0.041884407 -0.020659372 -0.008687569 0.052337307
-0.06770642 -0.0050414028 0.06653066 0.029789727 0.025523508 0.07482477 0.11763525 -0.05685155
0.07812764 -0.08762869 0.05771428 0.06385111 0.06336134 -0.024487419 -0.077260196 0.060326334
-0.078943536 0.13164973 0.090188056 -0.035386696 -0.016514225 -0.11277238 -0.045163818 -0.04753304
0.10958176 0.082958505 -0.008469525 -0.07544518 -0.0695546 0.017491383 0.011304071 -0.124274924
-0.04626771 -0.04993631 0.041549563 0.09893923 -0.003263568 -0.10498075 -0.009985194 0.11323839
0.024864873 0.10148935 0.052245356 0.06147999 -0.052122645 0.089331456 0.08560278 0.0040562474
-0.06412578 -0.041795485 -0.012066386 -0.11835942 0.06956747 0.09767216 0.06371166 -0.035294406
0.01948937 0.040515028 -0.012361613 -0.035042427 0.0054266746 0.07905525 -0.09775872 -0.1261873
0.1233482 0.1015826 -0.11008032 0.07090806 -0.00044869582 0.08005026 -0.12193475 -0.08378405
-0.11989134 -0.04166513 0.080825016 -0.0043156566 -0.11699031 -0.10013927 0.09126905 -0.0006637338
0.091489896 -0.08982882 0.0889884 0.02261161 0.06250104 0.08193893 -0.00297638 -0.046622537
0.05516284 0.12240654 -0.007900651 0.033767056 -0.026759313 0.11534855 -0.05446915 -0.10024153
0.11043686 0.06986554 0.10308161 0.071947314 -0.054288566 -0.036504194 -0.08341704 0.13965891
-0.03543401 0.104873985 0.050845485 -0.054179132 0.08388925 0.023229096 0.07804033 0.0014422161
0.13875693 -0.008884009 0.016636532 -0.03913174 0.06714827 -0.106594466 0.08518964 -0.10549353
00000000: 7a70 48bd 8bdb fa3d 936e dbbd f06c a43d
00000010: 42d7 853d 9a60 c3bd 50fc fabd ec28 9a3d
00000020: c75b 02be bb18 abbc d379 9e3d a239 3abb
00000030: 3aa7 c1bd 8f0e d0bd 44b1 b6bd b172 d8bd
00000040: ed1e 903d 2aef 9ebd a399 c83d ff0d 8c3c
00000050: 1dd7 773d ec37 e3bc 8c4c 053e d0ed b7bd
00000060: bf90 793a 645e bf3d fdb0 033e a749 41bd
00000070: 2a55 953d 00d3 f9bd c3d5 7abc 1143 2abd
00000080: 06fe 9d3d 9593 b9bd 5235 abbd ce58 2ebd
00000090: 1806 863d 9c1a 02be de7e 683d a20e 5c3d
000000a0: 4d83 c5bd 7a41 34bd 861c 423d af2e 813d
000000b0: 4e10 553c ccf6 51bd c96e 9abc 1bc7 eabc
000000c0: 7ef3 1e3d 16c1 3abb 67bb f9bd d7f0 afbd
000000d0: be24 e63d cfce bcbd acb9 8bbd 65e6 4cbd
000000e0: 10f7 2cbd c11b b33d ff89 073d cdec d33c
000000f0: 1132 cebc 751b fe3d 6919 9dbd 8474 f13d
00000100: 20eb 0a3e 003e 04be c217 153d 4777 ebbb
00000110: 3639 dd3c 3980 0d3e c338 02bd 483f acbd
00000120: 0f95 9bbd b1c2 923d 623b 8a39 b1ac 343d
00000130: 7045 a2bd 505d e23c 5cd0 ee3d 2b49 193c
00000140: 32f4 833d e3af 873c eb13 bfbd aeb5 5abd
00000150: 71ac fa3c 822a afbd 6d57 0abe 0b1e 333d
00000160: 00e1 133e 38a4 543b c537 dabd 6737 f5bd
00000170: 8bf5 ddbd 5476 2fbd bd62 eebb 2afe 52bd
00000180: 30b7 1a3e f3fc c33c 8dce 14bd dcb4 82bd
00000190: 61d9 a1bd 22e3 813c 89ba 24bd 1d1b f33d
000001a0: e164 003e 7976 02bd ba64 adbd 5861 bf3d
000001b0: 882a 93bd d1dc babd 9608 393d fb12 6f3d
000001c0: d50e a53d 6cf6 4dbd 410f fabd d263 8fbd
000001d0: ccce 6fbd 806b 2bbc 0a74 6cbd 03c2 ca3d
000001e0: ba6c f13d 8aa0 c0bd 9511 23bd 9cb8 313a
000001f0: 1926 f3bd 8c5d 053e 6597 97bd 48cd c73d
00000200: 8f9d f23d ae0f 523c 2937 65bc 72eb 973c
00000210: fc8e 2bbd d83d a9bc 4e56 0ebc a55f 563d
00000220: aaa9 8abd 5a32 a5bb 3a41 883d 9609 f43c
00000230: ad16 d13c bb3d 993d c0ea f03d 2cdd 68bd
00000240: 6201 a03d ac76 b3bd cf65 6c3d 5fc4 823d
00000250: 97c3 813d d799 c8bc 983a 9ebd bf18 773d
00000260: 26ad a1bd 30cf 063e 84b4 b83d a4f1 10bd
00000270: d748 87bc 35f5 e6bd b2fd 38bd 01b2 42bd
00000280: 676c e03d 26e6 a93d c3c3 0abc 0183 9abd
00000290: a472 8ebd 174a 8f3c b634 393c da83 febd
000002a0: 3683 3dbd 048a 4cbd e02f 2a3d a7a0 ca3d
000002b0: 96e1 55bb 2600 d7bd f098 23bc 87e9 e73d
000002c0: 6bb1 cb3c a6d9 cf3d 3aff 553d 71d2 7b3d
000002d0: 8e7e 55bd 69f3 b63d 8350 af3d 45ea 843b
000002e0: 6054 83bd be31 2bbd 17b2 45bc 6c66 f2bd
000002f0: 6479 8e3d 5708 c83d 427b 823d de90 10bd
00000300: 2ca8 9f3c 16f3 253d 5d88 4abc a688 0fbd
00000310: 3fd2 b13b b8e7 a13d b935 c8bd 3e37 01be
00000320: fb9d fc3d 8a0a d03d ca71 e1bd 3f38 913d
00000330: ef3e ebb9 64f1 a33d edb8 f9bd f996 abbd
00000340: 9789 f5bd 0ea9 2abd 9687 a53d 5a6a 8dbb
00000350: 9e98 efbd d115 cdbd 45eb ba3d 6cfe 2dba
00000360: 0e5f bb3d 2cf8 b7bd 8d3f b63d fc3b b93c
00000370: 8c00 803d 99cf a73d 5f0f 43bb 46f7 3ebd
00000380: 6ef2 613d 48b0 fa3d bb71 01bc 534f 0a3d
00000390: 5936 dbbc dc3b ec3d 0b1b 5fbd 6e4b cdbd
000003a0: b82c e23d aa15 8f3d 731c d33d 1d59 933d
000003b0: b05d 5ebd 6c85 15bd 8ed6 aabd bf02 0f3e
000003c0: 4123 11bd 2cc8 d63d 5b43 503d f0ea 5dbd
000003d0: 21ce ab3d f24a be3c 9cd3 9f3d be08 bd3a
000003e0: 4c16 0e3e 3c8e 11bc 5649 883c 9a48 20bd
000003f0: 0885 893d 334e dabd e877 ae3d fe0c d8bd

arith.constant3 f4 [128]
0.021633435 -0.0046385503 -0.010195865 -4.2706044e-05 0.0050126454 0.03279396 -0.006575033 -0.006275926
0.013360822 0.04306706 0.012079188 0.001528067 -0.0027826298 0.029191816 0.024223138 -0.011467675
-0.03355187 0.007568979 -0.017848883 -0.021234695 0.012015582 0.024144137 -0.0053957864 0.008918327
0.01121587 0.034562796 0.014440141 0.010673935 -0.00024192537 -0.022313384 0.005240351 0.014367384
-0.014844296 -0.01911717 -0.013307217 0.032391388 -0.013840112 -0.0072565814 0.0077402988 -0.023540685
-0.001378504 -0.0077427584 0.008743833 0.01432517 0.008288625 -0.013006778 0.027168691 0.01698427
-0.0006449438 0.041451696 0.02877581 -0.010027615 0.012081809 0.013989386 -0.008867128 0.029144019
0.010733914 0.010569192 0.012000309 0.027059818 -0.017640326 -0.03291093 -0.009991668 0.023679113
-0.022275897 -0.00878787 -0.0052885716 0.030801667 -0.014728877 -0.020553324 -0.0016042308 -0.010895693
0.030936228 -0.0062796148 0.0047321613 0.019218842 -0.0027503704 -0.0054012043 0.00999791 -0.01422609
-0.011152773 0.03938143 0.006141823 -0.004636222 -0.026966669 -0.007877659 0.018645741 0.026884014
0.0016692807 -0.008730366 0.021687174 -0.014085339 0.026450012 -0.006554826 0.017235614 -0.022387242
0.009166777 -0.02475446 0.024724295 -0.01559412 -0.0033720362 0.013873044 -0.0077749207 0.0017014247
0.0358471 0.006897857 0.012476825 -0.014718351 -0.019654416 0.002399109 0.021245917 0.00745538
-0.020444833 0.010535205 0.026803449 0.008058702 0.01953015 0.018510574 -0.0013854661 0.010013428
0.023216411 -0.011622586 0.00062903436 -0.025898363 -0.005792701 0.010740435 -0.0010495852 -0.018251166
00000000: 9a38 b13c fbfe 97bb 8f0c 27bc 441f 33b8
00000010: 1e41 a43b f652 063d 6073 d7bb 48a6 cdbb
00000020: 59e7 5a3c 1667 303d c9e7 453c 6c49 c83a
00000030: c85c 36bb ad23 ef3c 9a6f c63c eae2 3bbc
00000040: b06d 09bd 3305 f83b d237 92bc 62f4 adbc
00000050: 01dd 443c edc9 c53c 23cf b0bb 2d1e 123c
00000060: c5c2 373c b891 0d3d 5796 6c3c bae1 2e3c
00000070: 59ad 7db9 8fca b6bc 40b7 ab3b 2d65 6b3c
00000080: 7d35 73bc 9c9b 9cbc 8306 5abc d5ac 043d
00000090: a3c1 62bc 9ec8 edbb 55a2 fd3b 65d8 c0bc
000000a0: ebae b4ba f7b6 fdbb 4b42 0f3c 1eb4 6a3c
000000b0: 03cd 073c 621a 55bc e090 de3c 9922 8b3c
000000c0: 7211 29ba 41c9 293d 3fbb eb3c de4a 24bc
000000d0: c8f2 453c bd33 653c 6e47 11bc 70bf ee3c
000000e0: 4cdd 2f3c 672a 2d3c f29c 443c 8dac dd3c
000000f0: 7282 90bc 9dcd 06bd 18b4 23bc b3fa c13c
00000100: f17b b6bc 00fb 0fbc c14b adbb c753 fc3c
00000110: 6351 71bc 725f a8bc 0e45 d2ba d983 32bc
00000120: f96d fd3c 3ac5 cdbb 3f10 9b3b d570 9d3c
00000130: 8f3f 34bb 96fc b0bb 46ce 233c 8c14 69bc
00000140: 1fba 36bc 6c4e 213d 5841 c93b 73eb 97bb
00000150: 34e9 dcbc 4c11 01bc f4be 983c dd3b dc3c
00000160: c4cb da3a cf09 0fbc 4da9 b13c 32c6 66bc
00000170: b2ad d83c dec9 d6bb b431 8d3c 7365 b7bc
00000180: 4030 163c dec9 cabc 9b8a ca3c 7b7e 7fbc
00000190: 61fd 5cbb c44b 633c c3c4 febb 5702 df3a
000001a0: 69d4 123d 6b07 e23b 996b 4c3c 3d25 71bc
000001b0: 4c02 a1bc 5f3a 1d3b eb0b ae3c 434c f43b
000001c0: ec7b a7bc da9b 2c3c e892 db3c a508 043c
000001d0: b1fd 9f3c 7da3 973c 8798 b5ba 5c0f 243c
000001e0: 5830 be3c a96c 3ebc c8e5 243a ce28 d4bc
000001f0: b3d0 bdbb a6f8 2f3c 3c92 89ba 7883 95bc

sequential_1_1/dense_3_1/BiasAdd/ReadVariableOp f4 [256]
0.014892763 0.041414063 -0.0018056578 0.010589809 -0.0065863067 -0.004944531 0.0012384197 0.031570237
-0.02621024 -0.006100237 -0.011195846 -0.008644103 -0.041253507 0.015642801 0.007101601 -0.014234872
0.023018006 -0.014021806 0.0314281 0.029584706 0.0030101913 0.0009175925 -0.036585826 0.0036563163
0.04505018 0.009139129 -0.023746993 -0.031898044 -0.04004431 -0.009540062 0.00431217 -0.039253816
0.00493586 -0.011530067 0.0061361343 0.0016313387 0.025268676 -0.011716142 -0.031180207 -0.012559029
0.0048733833 -0.009589377 -0.012340231 -0.013868168 -0.001263376 -0.000730445 -0.012211607 0.014289351
-0.010683323 -0.019723434 -0.009229569 0.012332059 0.029019449 -0.0022705072 -0.00015658946 -0.014967249
-0.014704858 -0.002094291 0.029052582 0.0021983536 0.0076727998 0.010752232 -0.00595834 0.043225873
-0.027831059 -0.0036771724 0.03501655 -0.019876562 -0.017586444 0.0264108 0.004369875 -0.021992352
0.0046585784 0.021140339 -0.0076198904 0.00091724884 0.0006890213 -0.03566393 -0.02367143 -0.014203104
0.01178505 0.014091132 -0.012342125 -0.013894656 -0.008445989 -0.03363816 -0.0037680592 -0.0079162475
-0.012639677 0.020705871 -0.031763375 -0.0220121 -0.026338816 0.0065254313 -0.03581516 0.009523482
0.043939576 0.016332349 -0.008884135 0.0130004715 -0.0053757513 -0.006212782 0.011668726 -0.017647598
0.016043987 -0.022041753 -0.027216647 0.0046578683 0.0011485355 -0.008715916 -0.014646223 0.001487516
-0.01236427 -0.0076329135 -0.00020222535 0.0015533253 0.0061906227 0.0026056701 0.0073012076 0.03309637
-0.023452302 -0.019762255 -0.0074150125 -0.025667967 -0.0053016446 0.0001323543 -0.03519106 -0.03195989
-0.012291315 0.016551575 -0.012145258 0.0036568255 -0.031677563 0.00988651 0.008875767 0.014876123
0.012785387 -0.01267618 -0.02887111 -0.035812527 0.020704903 0.0107190795 0.006751541 0.00063935306
-0.013349522 -0.007858211 0.0018992017 -0.03229539 -0.02499626 0.008963648 0.031936422 -0.030400734
0.0056383163 0.019687876 -0.017105563 -0.0033003637 -0.006130363 0.0021999408 0.008682512 0.017185042
-0.016012266 0.014725197 -0.025096392 0.0037588673 0.025855571 -0.036763962 -0.021736283 -0.01451116
-0.0080064135 -0.027348975 -0.018865377 0.007960498 -0.014610097 0.01619624 5.649135e-05 0.011285268
-0.0056406064 -0.029050533 -0.0017152473 -0.019945562 0.013603404 -0.02455512 -0.008797097 0.016782984
-0.0041291467 0.029666752 0.0411664 0.0009620092 -0.013392041 0.011598045 0.025195703 -0.009471134
0.023840204 -0.0030035912 0.0028597165 -0.044770975 -0.01990622 -0.042688224 -0.0016696868 -0.006425703
-0.04222557 0.009109141 -0.03105842 0.058166116 -0.020628767 -0.000932096 -0.018585818 0.0042371172
-0.009360913 -4.108667e-05 0.0033607231 -0.00586806 -0.012740237 0.0031187327 0.0037928666 -0.0015050794
-0.019700056 0.0010330753 0.0074318787 -0.024107296 -0.03975753 -0.021610303 -0.006035093 -0.0070512104
-0.050403062 -0.01207695 0.0022333742 -0.00080913986 -0.008145287 0.0037754092 -0.0002310746 -0.014249323
-0.036237366 0.0068170936 -0.014672366 -0.023599714 -0.015533931 0.006177315 0.012555913 0.015418215
-0.012493312 0.0055256295 -0.023754053 0.0029705577 -0.02541032 -0.024726002 -0.012683205 -0.01795685
0.0042279433 -0.019981083 -0.03366624 -0.0008328343 -0.01157783 -0.019237056 0.004764942 0.0067639677
00000000: c700 743c cba1 293d d2ab ecba e180 2d3c
00000010: f2d1 d7bb bb05 a2bb 7852 a23a cb4f 013d
00000020: dbb6 d6bc 7fe4 c7bb c86e 37bc ff9f 0dbc
00000030: 70f9 28bd 5525 803c 8cb4 e83b 6139 69bc
00000040: 4290 bc3c b8bb 65bc c0ba 003d a05b f23c
00000050: a146 453b 978a 703a 05db 15bd cf9e 6f3b
00000060: 8a86 383d 49bc 153c 0e89 c2bc 86a7 02bd
00000070: 8105 24bd ec4d 1cbc 1b4d 8d3b 9cc8 20bd
00000080: ffbc a13b 9be8 3cbc a011 c93b a5d2 d53a
00000090: 4100 cf3c 10f5 3fbc a26d ffbc 63c4 4dbc
000000a0: e7b0 9f3b c31c 1dbc ae2e 4abc 5037 63bc
000000b0: dd97 a5ba 567b 3fba 3113 48bc e21d 6a3c
000000c0: 1b09 2fbc 0a93 a1bc 9e37 17bc 680c 4a3c
000000d0: 32ba ed3c cacc 14bb 2a32 24b9 3139 75bc
000000e0: a5ec 70bc 5f40 09bb aeff ed3c 4112 103b
000000f0: 1c6c fb3b 212a 303c 2e3e c3bb 9d0d 313d
00000100: f6fd e3bc b7fc 70bb 846d 0f3d 2cd4 a2bc
00000110: 7211 90bc 765b d83c 2b31 8f3b 4e29 b4bc
00000120: fda6 983b 812e ad3c 46b0 f9bb 8773 703a
00000130: 709f 343a 5714 12bd 96ea c1bc 23b4 68bc
00000140: 1516 413c 7ede 663c a036 4abc 69a6 63bc
00000150: 0c61 0abc 2bc8 09bd 8bf1 76bb 26b3 01bc
00000160: a616 4fbc 5c9f a93c 501a 02bd b852 b4bc
00000170: 80c4 d7bc 49d3 d53b ebb2 12bd 6108 1c3c
00000180: fcf9 333d 6bcb 853c c38e 11bc eeff 543c
00000190: 1227 b0bb 9894 cbbb 2f2e 3f3c b291 90bc
000001a0: ae6e 833c e890 b4bc 72f5 debc 08a1 983b
000001b0: 758a 963a 34cd 0ebc b6f6 6fbc c1f8 c23a
000001c0: 8293 4abc 851d fabb 740c 54b9 f398 cb3a
000001d0: b5da ca3b e4c3 2a3b f83e ef3b 0f90 073d
000001e0: 0b1f c0bc 74e4 a1bc a2f9 f2bb a145 d2bc
000001f0: 6bb9 adbb 96c8 0a39 8024 10bd 60e8 02bd
00000200: 8361 49bc 2b97 873c e7fc 46bc 5aa7 6f3b
00000210: 55c0 01bd 07fb 213c aa6b 113c fbba 733c
00000220: cd79 513c c1af 4fbc 1b83 ecbc 28b0 12bd
00000230: 549d a93c 149f 2f3c 083c dd3b 429a 273a
00000240: f4b7 5abc babf 00bc a2ee f83a 2c48 04bd
00000250: f5c4 ccbc 44dc 123c c4cf 023d f60a f9bc
00000260: a0c1 b83b 7848 a13c f720 8cbc ea4a 58bb
00000270: 36e1 c8bb e22c 103b 1841 0e3c a5c7 8c3c
00000280: 282c 83bc f441 713c f396 cdbc 5457 763b
00000290: 10cf d33c cf95 16bd 4a10 b2bc 37c0 6dbc
000002a0: 552d 03bc f50a e0bc 908b 9abc c06c 023c
000002b0: 305f 6fbc faad 843c 20f1 6c38 d8e5 383c
000002c0: d6d4 b8bb 62fb edbc 26d2 e0ba e064 a3bc
000002d0: d0e0 5e3c d227 c9bc b321 10bc 787c 893c
000002e0: cb4d 87bb b007 f33c 199e 283d 582f 7c3a
000002f0: 4b6a 5bbc ba05 3e3c 3867 ce3c d12c 1bbc
00000300: 884c c33c e6d7 44bb 156a 3b3b c561 37bd
00000310: 5e12 a3bc d9d9 2ebd 64d9 daba b48e d2bb
00000320: b8f4 2cbd 823e 153c 3a6e febc 983f 6e3d
00000330: a9fd a8bc e757 74ba 4941 98bc 84d7 8a3b
00000340: 845e 19bc 7a54 2cb8 943f 5c3b db48 c0bb
00000350: 6dbc 50bc a763 4c3b be91 783b 1646 c5ba
00000360: 0362 a1bc 4168 873a 1e87 f33b aa7c c5bc
00000370: cbd8 22bd 1708 b1bc 08c2 c5bb d70d e7bb
00000380: 7173 4ebd 66de 45bc cd5d 123b 751c 54ba
00000390: cf73 05bc db6c 773b 9e4c 72b9 fe75 69bc
000003a0: a26d 14bd ed61 df3b 5d64 70bc 3054 c1bc
000003b0: 0782 7ebc 136b ca3b 51b7 4d3c ae9c 7c3c
000003c0: c0b0 4cbc 5710 b53b dc97 c2bc b0ad 423b
000003d0: 4e29 d0bc 2f8e cabc 38cd 4fbc 3e1a 93bc
000003e0: 8f8a 8a3b 5eaf a3bc 9ce5 09bd 9052 5aba
000003f0: f0b0 3dbc 0897 9dbc 3b23 9c3b 46a4 dd3b

sequential_1_1/dense_3_1/MatMul f4 [256, 215]
-0.08606649 0.086390436 -0.09549312 -0.019911632 0.06488507 0.07700034 0.04191565 -0.15719903
-0.15830047 0.03677128 0.020825576 0.007542313 0.14588508 0.103497624 0.0031983173 -0.116297185
-0.07431843 0.036093567 0.06278083 -0.14502394 -0.015562385 0.09697229 -0.0169108 -0.10761271
-0.06420988 -0.056980122 0.059347115 -0.119048014 0.035806265 0.060167447 0.014986649 0.08978411
-0.047555827 0.033868432 0.08761647 0.011599771 -0.04703332 -0.12400905 -0.057914153 0.057257675
-0.06968142 0.11571479 -0.052247595 0.104472294 -0.012038471 0.09061196 -0.026797349 -0.14241551
-0.05029572 -0.06508852 0.07383108 0.03961352 -0.05102841 0.068571806 0.011613724 -0.11301176
-0.07230562 -0.06816176 -0.061410174 0.0059406837 -0.09838102 0.05185552 0.038857665 -0.0028916646
0.08196275 0.005924623 0.02513069 0.029446438 -0.0128284795 -0.0064996346 -0.033499505 0.03313264
-0.017279575 -0.0895127 -0.07838773 -0.06200326 -0.08485528 0.05653579 0.075808555 0.063932456
0.116435274 -0.041770723 -0.02144569 -0.022561943 0.13724762 -0.08416958 -0.021944739 -0.04431259
-0.05938864 0.04601141 -0.11923736 0.07689582 0.045941554 -0.003604169 0.01938151 0.0073214984
0.028152775 0.04859855 -0.03566462 0.086104035 0.107148126 0.04975875 -0.024876282 0.0134521695
-0.062280472 0.09948957 0.016134024 0.023071421 -0.10097566 0.08516922 -0.121260144 0.034210637
0.05928997 0.01744574 -0.06818639 0.08010542 0.06371472 0.039412696 -0.022523997 -0.10785004
-0.0850413 0.020200556 -0.11741355 0.033924036 0.07719691 -0.026591618 -0.043949265 -0.10848806
0.014656889 0.09436152 0.06015517 0.05402372 0.017067002 0.097173326 -0.030450767 -0.002641816
-0.12774733 -0.029701492 -0.03710748 0.04739977 -0.07820929 0.08041881 0.06852926 -0.018169986
0.015456275 -0.12895942 0.017065303 -0.021286888 0.01697819 0.03658675 0.08522474 0.1172168
-0.052773707 0.12710975 -0.07170982 0.08742022 -0.03667296 -0.11010532 -0.1132452 0.10339925
0.053299878 -0.08679461 0.035698764 0.0009359915 0.1023933 0.022835307 0.01635592 -0.094027445
-0.01196389 0.05684957 -0.053315356 0.15842582 0.0040459707 -0.07415991 -0.06515727 0.112902716
-0.07391983 -0.099921085 -0.11118355 -0.02422407 0.106724486 0.07937494 -0.060474038 -0.06377401
0.09474532 -0.059487317 0.053297356 0.08059962 0.081377536 0.039549325 0.08004401 0.041136805
-0.10499935 0.028142393 -0.011552349 0.008487055 -0.12432152 -0.017911103 -0.117319144 -0.13843536
-0.017246386 -0.11292756 -0.13080053 -0.034301117 -0.116619766 -0.004204964 0.0450736 -0.10291923
0.08683153 0.08470111 -0.0634977 -0.024921332 -0.07861631 0.0009675101 -0.08606388 0.12731309
-0.069861345 -0.017631073 -0.09335917 -0.0014783397 0.032936905 0.062538624 0.123065725 0.05717765
-0.028920168 0.007262076 0.13349046 0.10053823 -0.10426284 0.037364163 0.009878213 -0.003435229
0.004365216 0.13604173 0.07216428 0.13214578 0.081418574 -0.030637108 0.011872739 0.022138689
0.024629507 0.020664299 0.0670311 0.034688313 0.10495608 -0.090864785 0.05317519 -0.05872836
0.03974601 0.04206991 0.023018831 -0.017870924 0.08234854 -0.07049133 0.016769998 -0.07600146
00000000: a143 b0bd 78ed b03d e691 c3bd b81d a3bc
00000010: 77e2 843d 5bb2 9d3d bfaf 2b3d c8f8 20be
00000020: 8519 22be 7b9d 163d 669a aa3c 8225 f73b
00000030: e662 153e 90f6 d33d dc9a 513b 382d eebd
00000040: 4334 98bd d9d6 133d 3c93 803d 2881 14be
00000050: 60f9 7ebc 6899 c63d 8588 8abc 0d64 dcbd
00000060: 7880 83bd fd63 69bd f615 733d 72cf f3bd
00000070: 97a9 123d 2472 763d 908a 753c bbe0 b73d
00000080: e6c9 42bd a0b9 0a3d 4470 b33d f70c 3e3c
00000090: 03a6 40bd 75f8 fdbd 6437 6dbd 0687 6a3d
000000a0: 22b5 8ebd e0fb ec3d 9301 56bd 92f5 d53d
000000b0: 023d 45bc c392 b93d 1d86 dbbc 5fd5 11be
000000c0: e302 4ebd 214d 85bd c034 973d c941 223d
000000d0: 2b03 51bd 606f 8c3d 7d47 3e3c b672 e7bd
000000e0: f814 94bd 6598 8bbd 3c89 7bbd 11aa c23b
000000f0: fd7b c9bd 7466 543d 3729 1f3d 1582 3dbb
00000100: 16dc a73d 5723 c23b e0de cd3c a839 f13c
00000110: 8b2e 52bc e3fa d4bb c736 09bd 17b6 073d
00000120: e58d 8dbc 6f52 b7bd bf89 a0bd 21f7 7dbd
00000130: 9bc8 adbd 1392 673d 8441 9b3d 05ef 823d
00000140: 9e75 ee3d c717 2bbd dfae afbc d3d3 b8bc
00000150: a48a 0c3e 1a61 acbd 74c5 b3bc 1e81 35bd
00000160: 8141 73bd 7676 3c3d b832 f4bd 8e7b 9d3d
00000170: 362d 3c3d ec33 6cbb f9c5 9e3c 2ee9 ef3b
00000180: a6a0 e63c 460f 473d 1115 12bd 5057 b03d
00000190: 7a70 db3d d5cf 4b3d 58c9 cbbc 7d66 5c3c
000001a0: cf19 7fbd 30c1 cb3d 802b 843c 4700 bd3c
000001b0: 54cc cebd 336d ae3d 3d57 f8bd 7420 0c3d
000001c0: 0ada 723d 5eea 8e3c 4ea5 8bbd 4f0e a43d
000001d0: dd7c 823d 356f 213d 3f84 b8bc 7be0 dcbd
000001e0: 222a aebd a37b a53c 8476 f0bd eef3 0a3d
000001f0: 6a19 9e3d aad6 d9bc 2504 34bd fd2e debd
00000200: 7323 703c 9d40 c13d 4465 763d fa47 5d3d
00000210: 19d0 8b3c cf02 c73d e373 f9bc 5122 2dbb
00000220: 32d0 02be 8b50 f3bc 03fe 17bd 4326 423d
00000230: 312c a0bd 9eb2 a43d 1259 8c3d 39d9 94bc
00000240: 513c 7d3c f00d 04be 89cc 8b3c d761 aebc
00000250: d815 8b3c fddb 153d 4f8a ae3d 5d0f f03d
00000260: 3e29 58bd 0f29 023e 99dc 92bd 5f09 b33d
00000270: 6336 16bd e67e e1bd 19ed e7bd fcc2 d33d
00000280: f950 5a3d 5fc1 b1bd de38 123d 545d 753a
00000290: 94b3 d13d 1c11 bb3c dafc 853c 7691 c0bd
000002a0: 3104 44bc 18db 683d 3461 5abd 613a 223e
000002b0: 1094 843b 27e1 97bd 2d71 85bd 8a39 e73d
000002c0: 4863 97bd 6da3 ccbd 33b4 e3bd 8f71 c6bc
000002d0: 5e92 da3d 548f a23d a0b3 77bd f39b 82bd
000002e0: d609 c23d f9a8 73bd 544e 5a3d 6a11 a53d
000002f0: 44a9 a63d 79fe 213d 1dee a33d 117f 283d
00000300: e609 d7bd e08a e63c 1046 3dbc 4a0d 0b3c
00000310: 489c febd 4eba 92bc 0545 f0bd 00c2 0dbe
00000320: 4b48 8dbc 9146 e7bd 93f0 05be 547f 0cbd
00000330: 58d6 eebd cbc9 89bb 189f 383d 51c7 d2bd
00000340: bbd4 b13d c777 ad3d 150b 82bd d227 ccbc
00000350: 9701 a1bd 81a0 7d3a 4242 b0bd 5d5e 023e
00000360: 7713 8fbd 0a6f 90bc 1833 bfbd d9c4 c1ba
00000370: d9e8 063d 4014 803d e209 fc3d 1d33 6a3d
00000380: fde9 ecbc b5f6 ed3b b9b1 083e fde6 cd3d
00000390: c187 d5bd 2a0b 193d 3ad8 213c 9421 61bb
000003a0: 160a 8f3b 864e 0b3e deca 933d 3951 073e
000003b0: c8be a63d acfa fabc e085 423c 325c b53c
000003c0: d2c3 c93c 2d48 a93c 9a47 893d 5515 0e3d
000003d0: 37f3 d63d 5117 babd 3ace 593d 268d 70bd
000003e0: b6cc 223d 7f51 2c3d fd91 bc3c 0b66 92bc
000003f0: 5aa6 a83d c25d 90bd 3c61 893c a7a6 9bbd
