maldet/app/src/main/ml/model2.tflite (tflite, 79896 bytes, 5 tensors)

arith.constant f4 [1, 64]
-0.10108762 0.13722797 0.3953211 0.32643986 0.10638669 -0.09140327 0.16602176 0.23767516
0.147939 0.311101 0.30585942 0.2399817 0.10297716 0.13676426 0.2074695 -0.17957327
-0.13241993 0.2379919 -0.22974561 -0.29134488 -0.21143563 0.3450357 -0.29980224 0.1631427
-0.31563583 0.20895979 -0.1291178 -0.06692556 0.34134874 -0.1910122 0.30776075 -0.31254077
-0.2050098 0.09843697 0.20381443 -0.3088402 -0.13009511 -0.14011106 -0.17977576 0.12759745
-0.2469284 -0.24993882 0.27693754 0.12809244 0.15793334 -0.24048932 -0.31980035 0.13794132
0.18958737 0.0985039 0.058930807 0.186636 0.1683706 -0.13310218 -0.091521606 0.29123846
-0.11086548 0.12649032 -0.1401532 0.25042465 0.26396334 0.18429227 -0.29515538 -0.24549153
00000000: 0707 cfbd 7d85 0c3e 8767 ca3e 2023 a73e
00000010: 44e1 d93d a331 bbbd 9c01 2a3e 1e61 733e
00000020: 527d 173e a148 9f3e 9b99 9c3e c3bd 753e
00000030: b0e5 d23d ee0b 0c3e e272 543e 0ee2 37be
00000040: 1799 07be 26b4 733e 6f42 6bbe 282b 95be
00000050: 9582 58be 85a8 b03e ae7f 99be e10e 273e
00000060: 059b a1be 8ef9 553e 7537 04be 4510 89bd
00000070: 43c5 ae3e b498 43be d192 9d3e 5805 a0be
00000080: 17ee 51be 5299 c93d bbb4 503e 4d20 9ebe
00000090: a737 05be 4679 0fbe 2317 38be e8a8 023e
000000a0: ccda 7cbe f6ef 7fbe c2ca 8d3e aa2a 033e
000000b0: 47b9 213e d542 76be dfbc a3be 7d40 0d3e
000000c0: 3123 423e 6abc c93d 6e61 713d 821d 3f3e
000000d0: 5869 2c3e f04b 08be ae6f bbbd 351d 953e
000000e0: 710d e3bd ae86 013e 5284 0fbe a937 803e
000000f0: 3426 873e 1db7 3c3e 9b1e 97be 2262 7bbe

arith.constant1 f4 [64, 128]
0.10335232 0.008645875 0.05188183 -0.018230578 0.018884877 0.028433701 -0.056299966 -0.08026802
0.19154203 0.21044436 0.08475133 0.10121878 -0.075104706 -0.13382308 0.14438973 -0.15015355
0.07945772 -0.05265113 0.22657862 0.08919099 0.21107486 -0.073968686 -0.018575234 0.2332491
-0.1777608 0.007444251 -0.07133098 0.20679852 -0.10384709 0.23209928 0.025387125 0.27440304
-0.098537505 -0.07236661 0.21865866 0.23122247 0.07877305 0.14301088 -0.034353253 0.03619875
0.00040144575 -0.08767861 0.019651849 0.074139275 0.05770653 0.18583573 0.0706342 -0.09485123
0.2605486 0.012980194 0.0028718316 0.20140858 0.0315814 -0.05366638 0.10137686 0.13241714
0.06651075 -0.0589809 0.20327544 -0.109825395 0.014473973 0.09530302 0.11274361 -0.09356403
-0.10202691 0.109717324 -0.20933345 0.022222484 0.17331949 0.020299204 -0.12863512 0.27807236
0.2938542 0.062129155 -0.020046828 0.20121713 0.23675962 0.006527107 -0.17701674 0.06824263
0.120683655 0.19157584 0.039534498 0.051348757 -0.10806974 0.13496788 0.0023206219 0.19661218
0.04176994 0.014793694 0.00470395 -0.074073546 0.29346558 0.07767382 0.024147004 0.025270356
-0.15916023 0.16332692 0.054678533 0.053502344 -0.18109874 -0.15414706 -0.11655288 0.055926684
0.032408156 0.24229087 0.03395006 0.16992578 -0.09985232 0.22274655 0.2016479 0.0240802
0.05173528 -0.09468309 0.32956833 0.09539445 0.17642169 0.2558782 0.040040493 0.098396376
0.057854846 0.16505902 0.025097217 0.11522546 -0.16291809 -0.0072778105 0.15332638 0.0025176792
0.09191497 0.06939895 -0.14312045 -0.1649531 0.042715635 0.20138164 0.022589967 0.1128399
-0.057378657 -0.035845675 -0.075694256 0.10187803 0.011096336 0.05110255 -0.12789574 0.09908274
-0.099204645 0.027553346 -0.22357039 -0.06526515 -0.19273181 -0.04839411 -0.13122024 -0.25287363
0.038910717 -0.0051227463 0.18775733 0.13495843 0.19329415 -0.25760615 -0.19608457 -0.1920587
-0.091655366 -0.16047058 0.11721345 0.006639595 -0.0027388032 0.083325304 0.05142759 0.12038745
-0.17971806 0.12717928 0.1682662 -0.11402755 0.024331812 -0.056868356 -0.17812955 -0.027218128
-0.118897215 -0.19804089 0.22280034 -0.13149987 0.0727843 -0.059390638 -0.069067046 -0.1293478
0.075806685 0.20253082 -0.22621493 0.13872227 0.16961138 -0.073017426 -0.19383273 0.040032297
0.14497823 0.11180853 0.09740624 -0.0597387 -0.067300245 0.07821917 -0.05081292 0.13216238
-0.095214315 -0.04751176 0.103916675 0.036874566 -0.2559844 0.084105715 0.06390702 0.03683427
0.14798045 -0.15639152 -0.11681616 0.22771566 0.10566203 -0.17162502 0.08345072 -0.21853964
0.17511635 -0.021441428 -0.040980652 0.118822925 -0.2446452 -0.064954065 -0.02445211 -0.14806928
0.0059169815 -0.12327485 0.06986626 0.038095627 0.23061287 -0.047706448 0.22244655 -0.001838367
0.11286768 -0.2870067 -0.024391765 -0.14506517 -0.018338507 -0.06508075 -0.15237148 -0.018538367
-0.06918948 0.16726483 0.023956276 -0.048637528 -0.11263829 -0.020111691 -0.1279601 0.027924426
-0.23867196 -0.09803131 0.19122198 -0.24656326 0.14571135 -0.11171815 -0.034615055 0.22948797
00000000: 62aa d33d 6ea7 0d3c 0b82 543d 4b58 95bc
00000010: 75b4 9a3c cbed e83c cb9a 66bd 8f63 a4bd
00000020: 9823 443e ba7e 573e 1b92 ad3d cb4b cf3d
00000030: 7fd0 99bd eb08 09be e7da 133e dac1 19be
00000040: bbba a23d b6a8 57bd 3a04 683e c4a9 b63d
00000050: 0224 583e e57c 97bd 172b 98bc dad8 6e3e
00000060: ed06 36be e7ee f33b fa15 92bd fec2 533e
00000070: c8ad d4bd 6fab 6d3e a9f8 cf3c 8e7e 8c3e
00000080: 08ce c9bd f234 94bd 0ee8 5f3e 95c5 6c3e
00000090: c453 a13d 7271 123e ffb5 0cbd 2445 143d
000000a0: 2379 d239 d890 b3bd eafc a03c 55d6 973d
000000b0: af5d 6c3d b94b 3e3e aaa8 903d 5d41 c2bd
000000c0: a066 853e e1aa 543c 5735 3c3b 0d3e 4e3e
000000d0: 805b 013d 47d1 5bbd ac9e cf3d 5c98 073e
000000e0: ca36 883d f595 71bd 7027 503e 23ec e0bd
000000f0: 3e24 6d3c 3b2e c33d 1fe6 e63d 809e bfbd
00000100: 7cf3 d0bd 7ab3 e03d 825b 56be ed0b b63c
00000110: aa7a 313e 844a a63c edb8 03be 805f 8e3e
00000120: 0f74 963e 247b 7e3d 3f39 a4bc dd0b 4e3e
00000130: 1d71 723e 58e1 d53b e043 35be cbc2 8b3d
00000140: fe28 f73d 752c 443e edee 213d 1353 523d
00000150: ab53 ddbd 0535 0a3e 9315 183b b454 493e
00000160: f516 2b3d 4061 723c 9823 9a3b dfb3 97bd
00000170: 1f41 963e 7413 9f3d f0cf c53c c703 cf3c
00000180: e6fa 22be 2c3f 273e 99f6 5f3d 4625 5b3d
00000190: f371 39be bad8 1dbe 47b3 eebd 6113 653d
000001a0: 6abe 043d 191b 783e 380f 0b3d 0601 2e3e
000001b0: 607f ccbd ac17 643e c97c 4e3e d743 c53c
000001c0: 5fe8 533d 35e9 c1bd 2ebd a83e 2a5e c33d
000001d0: e3a7 343e 7802 833e 8001 243d 0a84 c93d
000001e0: 34f9 6c3d 3b05 293e ae98 cd3c 53fb eb3d
000001f0: 00d4 26be b37a eebb 9701 1d3e a6ff 243b
00000200: ea3d bc3d 0921 8e3d 2b8e 12be 77e9 28be
00000210: 97f6 2e3d fd36 4e3e 980e b93c 9b18 e73d
00000220: e205 6bbd ead2 12bd 9705 9bbd 6ea5 d03d
00000230: 68cd 353c e850 513d 1af7 02be e4eb ca3d
00000240: ce2b cbbd 8eb7 e13c a3ef 64be bca9 85bd
00000250: 7d5b 45be e738 46bd 995e 06be a778 81be
00000260: d860 1f3d b6dc a7bb 7543 403e 8b32 0a3e
00000270: e7ee 453e f4e4 83be 65ca 48be 09ab 44be
00000280: cfb5 bbbd 6652 24be 9b0d f03d f690 d93b
00000290: 7e7d 33bb 75a6 aa3d bda5 523d b28d f63d
000002a0: 0308 38be 493b 023e fa4d 2c3e 4787 e9bd
000002b0: 8253 c73c cbee 68bd 9867 36be 8df8 debc
000002c0: 6280 f3bd 3bcb 4abe c625 643e e7a7 06be
000002d0: ef0f 953d 9943 73bd 0673 8dbd c073 04be
000002e0: 8940 9b3d 3d64 4f3e e3a4 67be 360d 0e3e
000002f0: 9bae 2d3e 298a 95bd 167c 46be e8f8 233d
00000300: 2c75 143e dffb e43d ec7c c73d 91b0 74bd
00000310: b6d4 89bd 5f31 a03d 3521 50bd 9355 073e
00000320: b9ff c2bd b19b 42bd 44d2 d43d c909 173d
00000330: 6310 83be 9e3f ac3d afe1 823d 88df 163d
00000340: 3088 173e 1925 20be 503d efbd 4b2e 693e
00000350: 5665 d83d 78be 2fbe 36e8 aa3d dbc8 5fbe
00000360: b351 333e efa5 afbc 54db 27bd 6f59 f33d
00000370: 4584 7abe a306 85bd cb4f c8bc 799f 17be
00000380: 3de3 c13b 8677 fcbd 0b16 8f3d 290a 1c3d
00000390: c825 6c3e d667 43bd 07c9 633e 5cf5 f0ba
000003a0: 2c27 e73d 8bf2 92be 3dd1 c7bc f78b 14be
000003b0: a33a 96bc 0e49 85bd 4507 1cbe c6dd 97bc
000003c0: 37b3 8dbd 7947 2b3e f43f c43c 2538 47bd
000003d0: e7ae e6bd 46c1 a4bc f907 03be c4c1 e43c
000003e0: 6c66 74be a4c4 c8bd b2cf 433e 147b 7cbe
000003f0: 5b35 153e 7ccc e4bd 84c8 0dbd e5fe 6a3e

arith.constant3 f4 [64]
0.15126264 0.15610045 0.083427645 0.08022012 0.063061304 0.035153307 0.14522883 0.09356516
0.18222325 0.11676266 0.07176727 0.14092802 0.104781896 0.099849746 0.05294521 0.08138952
-0.055300765 0.06379748 0.1085373 0.05752575 0.09288848 0.07937883 0.011357983 0.09763167
0.0528541 0.16092315 0.058845438 0.20283578 0.05873069 0.0059483987 0.07798 -0.0025350675
0.030246826 0.1447405 0.15800084 0.10833267 0.07527489 0.094681665 0.032552574 0.13875353
0.05492068 0.0729581 0.08668048 0.10562142 0.061894137 0.10059822 0.1055145 0.15184984
0.09001896 0.17535168 0.16174537 0.17240366 0.113798216 0.10009521 0.08569419 0.055435568
0.08002464 0.16128832 0.13684696 0.110145636 0.017528372 0.14556858 0.020157602 0.06261097
00000000: 98e4 1a3e ccd8 1f3e 1ddc aa3d 724a a43d
00000010: 4926 813d eafc 0f3d deb6 143e 179f bf3d
00000020: bb98 3a3e 4321 ef3d b8fa 923d 6f4f 103e
00000030: e497 d63d 067e cc3d 14dd 583d 8caf a63d
00000040: 0e83 62bd 41a8 823d ce48 de3d 1fa0 6b3d
00000050: 513c be3d 5e91 a23d d516 3a3c 1df3 c73d
00000060: 8a7d 583d 0ac9 243e ea07 713d 2fb4 4f3e
00000070: 988f 703d c9ea c23b fab3 9f3d 6023 26bb
00000080: 31c8 f73c db36 143e f9ca 213e 85dd dd3d
00000090: b929 9a3d 76e8 c13d d955 053d 6815 0e3e
000000a0: 82f4 603d 0e6b 953d 8985 b13d 0b50 d83d
000000b0: b584 7d3d 7106 ce3d fc17 d83d 867e 1b3e
000000c0: dc5b b83d 648f 333e 94a0 253e 968a 303e
000000d0: 0a0f e93d b8fe cc3d 6f80 af3d 6810 633d
000000e0: f5e3 a33d c428 253e 9c21 0c3e 0994 e13d
000000f0: a997 8f3c ee0f 153e 8e21 a53c 2e3a 803d

sequential_1_1/dense_3_1/BiasAdd/ReadVariableOp f4 [128]
-0.080023006 -0.058764327 -0.048265263 -0.037982564 -0.039841484 -0.1048541 -0.19934604 -0.07278063
-0.1192803 -0.05275599 -0.12441244 -0.14590807 -0.023744017 -0.13071936 0.02022455 -0.053376663
-0.063042514 -0.06667573 -0.09725211 -0.11007507 -0.05167514 -0.05997095 -0.0030131596 -0.083940595
-0.061571114 -0.0795206 -0.09547953 -0.11585009 -0.11404298 -0.08861507 -0.0018641115 -0.10180924
-0.065107234 -0.10251978 -0.04096795 -0.11344511 -0.04327911 -0.088781536 -0.12612705 -0.07815865
-0.08847341 -0.09688007 -0.089262985 -0.0010327679 -0.09417603 -0.051610604 -0.10733332 -0.03682911
-0.09296441 -0.09102969 -0.103481896 -0.048893496 -0.12706845 -0.07130135 -0.11143293 -0.13260967
-0.16601203 -0.08060972 -0.010458266 -0.13442968 -0.1307142 -0.06713555 -0.09295151 -0.071372695
-0.10209482 -0.055005632 -0.12759449 -0.047507048 -0.12745966 -0.05024992 -0.15275092 -0.023772806
-0.1423469 -0.06903115 -0.017589541 -0.109970935 -0.060168102 -0.120111875 -0.045416072 -0.045229148
-0.027052598 -0.12985875 -0.11044921 -0.14043638 -0.07382105 -0.040962916 -0.05079629 -0.06666897
-0.10694882 -0.12054269 -0.13330014 -0.10188173 -0.017674917 -0.1295396 -0.043431565 -0.090146974
-0.10244951 -0.03211655 -0.122859135 -0.08556098 -0.054490484 -0.055508915 -0.15470189 -0.01919519
-0.039980277 -0.07902677 -0.034907416 -0.1747058 -0.12338567 -0.004468967 -0.0033957607 -0.0013957112
-0.15097414 -0.14683658 -0.040972106 -0.04934191 -0.0060969456 -0.10226959 0.00053646485 -0.062256254
-0.08561692 -0.08233148 -0.022514801 -0.13902847 -0.073977515 -0.07353362 -0.09537825 -0.04320986
00000000: 1ae3 a3bd ddb2 70bd ccb1 45bd 9b93 1bbd
00000010: d330 23bd bfbd d6bd 5e21 4cbe 030e 95bd
00000020: 3b49 f4bd aa16 58bd f3cb febd ed68 15be
00000030: d082 c2bc 4cdb 05be f5ad a53c 7da1 5abd
00000040: 6f1c 81bd 498d 88bd 1d2c c7bd 0a6f e1bd
00000050: 50a9 53bd 19a4 75bd 6e78 45bb 0ce9 abbd
00000060: fe31 7cbd b2db a2bd c68a c3bd d042 edbd
00000070: 5e8f e9bd d17b b5bd 3455 f4ba 5d81 d0bd
00000080: f156 85bd e4f5 d1bd 02ce 27bd e955 e8bd
00000090: 7045 31bd 18d3 b5bd 7327 01be a411 a0bd
000000a0: 8c31 b5bd 0f69 c6bd 83cf b6bd f15d 87ba
000000b0: 5ddf c0bd a465 53bd 92d1 dbbd 1fda 16bd
000000c0: 2064 bebd c66d babd 51ee d3bd 8c44 48bd
000000d0: 3b1e 02be 7106 92bd f336 e4bd d4ca 07be
000000e0: 0fff 29be b516 a5bd 2659 2bbc efa7 09be
000000f0: f1d9 05be 5d7e 89bd 5c5d bebd d92b 92bd
00000100: 1717 d1bd 964d 61bd 21a8 02be c096 42bd
00000110: c984 02be dcd2 4dbd bd6a 1cbe 30bf c2bc
00000120: 63c3 11be 3460 8dbd f117 90bc 7138 e1bd
00000130: d472 76bd 37fd f5bd 3406 3abd 3342 39bd
00000140: 699d ddbc b1f9 04be 3233 e2bd 8ece 0fbe
00000150: 7e2f 97bd bbc8 27bd c50f 50bd be89 88bd
00000160: fc07 dbbd 16df f6bd d57f 08be 5ea7 d0bd
00000170: fdca 90bc 07a6 04be 4ce5 31bd fa9e b8bd
00000180: 0cd1 d1bd a58c 03bd 929d fbbd 983a afbd
00000190: 6a31 5fbd 515d 63bd 2c6a 1ebe 3b3f 9dbc
000001a0: 5cc2 23bd cad8 a1bd 14fb 0ebd 14e6 32be
000001b0: a0b1 fcbd 6a70 92bb 698b 5ebb 4cf0 b6ba
000001c0: f798 1abe 545c 16be 5ed2 27bd be1a 4abd
000001d0: e3c8 c7bb b872 d1bd 8ca1 0c3a 6a00 7fbd
000001e0: ec57 afbd 689d a8bd f670 b8bc 7b5d 0ebe
000001f0: 8681 97bd cb98 96bd ac55 c3bd d2fc 30bd

sequential_1_1/dense_3_1/MatMul f4 [128, 86]
0.110423654 -0.050341316 -0.23280203 -0.11175336 -0.10039888 0.10528684 0.026562419 0.09626716
0.05147799 0.099590056 -0.06224843 -0.17363718 -0.10482404 0.13324964 0.021730646 0.08323158
0.029867588 -0.04829457 0.01938629 0.008113804 -0.12460464 0.034497365 -0.060978018 -0.17874777
0.043075264 -0.122117706 -0.06775487 -0.022423968 0.043503508 -0.021111326 -0.09768519 -0.13655111
0.052721124 -0.118712336 -0.1620023 -0.0813174 -0.16121115 -0.0048503894 0.16208638 -0.2954524
0.1969144 0.14741647 -0.041085657 -0.0798416 0.21415783 -0.03215592 -0.0468687 0.051452678
-0.0029732739 0.2110354 0.142993 0.12537788 -0.18187355 0.16978276 0.13304955 -0.003505866
-0.07398751 0.14320433 0.048273887 0.025897983 0.05635556 0.034167405 0.17473586 -0.14988934
0.106436096 0.15388039 -0.03560819 0.058579866 -0.06315392 -0.1793987 -0.010488731 0.047841005
-0.01992685 0.08323055 0.006306052 -0.11810911 0.050819155 -0.18417941 0.0056673326 0.19727948
0.053285938 0.10107889 -0.0031375263 0.09298645 -0.10056079 0.16100658 0.05587311 -0.012827715
0.1998949 0.11071575 0.057140723 -0.1965138 -0.020735227 -0.104271054 -0.15551475 0.09563979
0.041600376 0.16772373 0.044743616 0.026959991 -0.053830944 0.14748743 -0.05874604 0.36233297
0.15421832 -0.053968843 0.024204582 0.28273618 0.011286973 -0.024755869 -0.05542975 0.19536945
0.15102614 0.050011713 0.051198017 0.10787445 -0.052744947 -0.06583862 0.1718917 -0.052492846
0.09592604 0.14284076 0.05195005 -0.102216884 -0.1945044 -0.19661905 -0.08987933 -0.043632902
0.016112713 -0.019258516 -0.0598791 0.17577684 0.09195284 -0.08020193 0.107075885 0.026931452
-0.063303255 -0.07971058 0.06258686 -0.14897965 -0.039028898 0.07642046 0.022266537 0.03398526
0.06101044 0.02418068 0.040776767 -0.099198535 -0.09823027 -0.040907267 0.057732202 0.22336583
-0.17961517 -0.002691014 0.028417828 -0.00055120734 0.11717533 0.009960492 0.07716029 0.049013615
-0.059024878 -0.010257854 -0.0800587 -0.04773668 0.21999218 -0.07368098 0.17497113 0.009678356
-0.0968509 0.10215083 -0.07790046 0.0124552045 0.09813403 0.24559312 -0.07194832 -0.15801938
0.016874172 0.2307201 -0.03143397 0.101261236 -0.114241324 0.024341602 0.11627025 0.06433867
-0.11774852 0.0486769 0.17595479 -0.041419387 -0.17095646 -0.044953957 0.1455966 -0.009533174
0.23593067 -0.104048036 -0.049488947 0.07644835 0.038073424 0.16907501 0.07252853 0.016755713
-0.17648172 0.020579563 -0.066657014 0.054811787 0.051112186 -0.043836463 0.09636135 0.025724364
-0.03199582 0.23433247 0.073167026 -0.0777683 -0.08710725 -0.12173584 0.02787469 0.032736193
0.070374556 0.062996514 0.19031353 0.18481398 -0.07211377 0.13952379 0.12099094 0.07780444
-0.148977 -0.2966652 -0.06979237 0.112085916 0.288146 -0.07635508 0.11956334 -0.08829132
0.174266 -0.019870326 -0.037615925 0.10833791 -0.0893384 -0.1536186 -0.16496511 0.06350199
-0.012937203 -0.049146205 0.12861851 -0.041247115 -0.10369665 0.050391838 -0.097747646 -0.029369492
-0.11712645 -0.124551 0.044320777 0.2226183 0.16033076 -0.033389173 0.12560573 0.08372787
00000000: cc25 e23d b232 4ebd a863 6ebe f2de e4bd
00000010: ee9d cdbd a0a0 d73d 6e99 d93c b727 c53d
00000020: 96da 523d dff5 cb3d 36f8 7ebd f2cd 31be
00000030: fcad d6bd 9872 083e 7804 b23c 5275 aa3d
00000040: dfac f43c 87d0 45bd ffcf 9e3c c3ef 043c
00000050: b830 ffbd 1c4d 0d3d 16c4 79bd a809 37be
00000060: b06f 303d d918 fabd 11c3 8abd 78b2 b7bc
00000070: bc30 323d a9f1 acbc 2c0f c8bd 0ed4 0bbe
00000080: 1bf2 573d 741f f3bd eee3 25be bd89 a6bd
00000090: 8914 25be 04f0 9ebb f9f9 253e 8945 97be
000000a0: eea3 493e 58f4 163e 6f49 28bd fe83 a3bd
000000b0: 314c 5b3e edb5 03bd 65f9 3fbd 0bc0 523d
000000c0: 42db 42bb aa19 583e c26c 123e 0f63 003e
000000d0: 0f3d 3abe 88db 2d3e 243e 083e acc2 65bb
000000e0: c386 97bd 28a4 123e d7ba 453d 0228 d43c
000000f0: 16d5 663d 1ff3 0b3d f5ed 323e 977c 19be
00000100: 2bfb d93d d292 1d3e e5d9 11bd 71f1 6f3d
00000110: d856 81bd 4bb4 37be edd8 2bbc eef4 433d
00000120: a23d a3bc c774 aa3d 00a3 ce3b 30e3 f1bd
00000130: bf27 503d 8799 3cbe 08b5 b93b a203 4a3e
00000140: 5b42 5a3d 7302 cf3d f59e 4dbb ae6f be3d
00000150: d1f2 cdbd e9de 243e 34db 643d 562b 52bc
00000160: 40b1 4c3e f0be e23d 640c 6a3d ea3a 49be
00000170: ecdc a9bc 108c d5bd 423f 1fbe cbde c33d
00000180: 2865 2a3d c5bf 2b3e 1545 373d 33db dc3c
00000190: d67d 5cbd f206 173e b09f 70bd b583 b93e
000001a0: 68eb 1d3e 6f0e 5dbd b048 c63c ccc2 903e
000001b0: ffec 383c d2cc cabc 4e0a 63bd ee0e 483e
000001c0: 99a6 1a3e 15d9 4c3d 03b5 513d 48ed dc3d
000001d0: 160b 58bd 66d6 86bd 6104 303e bd02 57bd
000001e0: df74 c43d d944 123e 93c9 543d 1657 d1bd
000001f0: 292c 47be 8156 49be a712 b8bd 6ab8 32bd
00000200: cffe 833c 09c4 9dbc ca43 75bd d8fe 333e
00000210: c551 bc3d e940 a4bd 9a4a db3d 599f dc3c
00000220: 23a5 81bd 4d3f a3bd 8a2d 803d 1f8e 18be
00000230: c4dc 1fbd 5582 9c3d 5068 b63c 2134 0b3d
00000240: 15e6 793d 9016 c63c 8a05 273d 9a28 cbbd
00000250: f42c c9bd 618e 27bd 9a78 6c3d 03ba 643e
00000260: 0aed 37be b95b 30bb 81cc e83c e67e 10ba
00000270: 9ff9 ef3d 5531 233c 3706 9e3d 80c2 483d
00000280: 12c4 71bd 8f10 28bc d1f5 a3bd 8987 43bd
00000290: a145 613e 0ee6 96bd a22b 333e f891 1e3c
000002a0: c459 c6bd 7434 d13d 478a 9fbd ea10 4c3c
000002b0: 7ffa c83d c37c 7b3e a459 93bd d5cf 21be
000002c0: b43b 8a3c e441 6c3e e8c0 00bd 0d62 cf3d
000002d0: 5bf7 e9bd 0a68 c73c 191f ee3d fec3 833d
000002e0: 2326 f1bd 6e61 473d 7e2d 343e 60a7 29bd
000002f0: 360f 2fbe a421 38bd 4617 153e 0831 1cbc
00000300: cf97 713e 2317 d5bd ecb4 4abd f490 9c3d
00000310: e1f2 1b3d 0022 2d3e d789 943d 4743 893c
00000320: a0b7 34be 7996 a83c 7983 88bd 5382 603d
00000330: 035b 513d dd8d 33bd 1959 c53d e7bb d23c
00000340: 0d0e 03bd daf4 6f3e 98d8 953d fd44 9fbd
00000350: 4965 b2bd a450 f9bd 7659 e43c 6316 063d
00000360: 8920 903d 5104 813d 8de1 423e e03f 3d3e
00000370: 62b0 93bd 53df 0e3e 19ca f73d ef57 9f3d
00000380: 6d8d 18be 80e4 97be 4def 8ebd 4d8d e53d
00000390: df87 933e 0d60 9cbd a0dd f43d 14d2 b4bd
000003a0: c972 323e 18c7 a2bc 2813 1abd 44e0 dd3d
000003b0: 0df7 b6bd 324e 1dbe 9dec 28be 550d 823d
000003c0: 90f6 53bc 884d 49bd 92b4 033e bcf2 28bd
000003d0: e95e d4bd ac67 4e3d eb2f c8bd 4a98 f0bc
000003e0: fedf efbd 9814 ffbd b489 353d 0df6 633e
000003f0: bf2d 243e 16c3 08bd ca9e 003e 8479 ab3d
