maldet/app/src/main/ml/satu_model.tflite (tflite, 355352 bytes, 5 tensors)

arith.constant f4 [1, 128]
0	0x3e18ed2f	0.14934228
1	0xbd553613	-0.052053522
2	0xbd161d24	-0.036648884
3	0xbc4cf678	-0.012509935
4	0x3dcf6bab	0.10127958
5	0x3dbf1b6a	0.09331401
6	0x3e425cfc	0.18980783
7	0x3e063e54	0.13109714
8	0xbdd5ec68	-0.104454815
9	0x3e3bdd3e	0.18346116
10	0xbd1aa8dd	-0.037758697
11	0xbe266ee7	-0.16253243
12	0xbdd2f392	-0.103003636
13	0xbd656004	-0.05599977
14	0x3e59d5e4	0.21272999
15	0xbdb7fa57	-0.089832954
16	0xbe1e1fa4	-0.15441757
17	0xbd5aab17	-0.05338582
18	0x3e48dbde	0.19615123
19	0x3e377569	0.17915882
20	0x3e058b6d	0.13041468
21	0x3e45c820	0.19314623
22	0xbe2132f9	-0.15742101
23	0xbe407b63	-0.18797068
24	0xbe348b17	-0.17631184
25	0xbdb145fc	-0.086559266
26	0x3dbb6d54	0.09151712
27	0xbde5a164	-0.112124234
28	0xbe4df4dc	-0.20112938
29	0xbe49673d	-0.19668289
30	0x3e0fe8c1	0.14053632
31	0xbd83d463	-0.06436994
32	0xbe3a48ae	-0.18191788
33	0x3e4e09ca	0.20120922
34	0x3e72f287	0.2372533
35	0x3dee7d24	0.116449624
36	0x3c365d4d	0.011130643
37	0xbe2a9427	-0.16658078
38	0xbd2ca242	-0.04214693
39	0xbdc4265c	-0.09577629
40	0xbe14af76	-0.14520058
41	0x3d8d5999	0.06901855
42	0x3d08008c	0.033203647
43	0xbd67c721	-0.05658639
44	0xbd498f0f	-0.049208697
45	0x3d3c12c7	0.045916345
46	0xbd64c848	-0.055855066
47	0xbd187cad	-0.037228275
48	0xbe4c226b	-0.19935004
49	0xbd459d81	-0.04824591
50	0xbcfaa818	-0.030597731
51	0xbe05a468	-0.13050997
52	0xbdf7f971	-0.12108124
53	0x3e477d67	0.19481431
54	0x3e13400c	0.143799
55	0xbd6a99ae	-0.057275467
56	0xbe661627	-0.22469388
57	0x3e6f516f	0.23370908
58	0xbe2b194a	-0.16708866
59	0xbdae49df	-0.085101835
60	0xbd3d3203	-0.046190273
61	0xbdee6e29	-0.11642105
62	0xbd4e003a	-0.050293185
63	0x3e14e12a	0.14539018
64	0xbde9ea7d	-0.11421678
65	0xbd6fa175	-0.058503587
66	0xbe3c6b86	-0.18400392
67	0x3de40bab	0.11135038
68	0x3e33760e	0.17525503
69	0x3e0ad18a	0.13556495
70	0xbd53191f	-0.05153763
71	0x3e369d40	0.17833424
72	0x3e0eba49	0.1393825
73	0xbe7aaa50	-0.24479032
74	0xbcbe2169	-0.02320929
75	0x3e54262c	0.20717686
76	0x3e356a54	0.17716342
77	0xbe332b65	-0.17497022
78	0xbdc01763	-0.09379461
79	0xbd11d00f	-0.03559881
80	0xbd828876	-0.06373684
81	0xbe08aabc	-0.1334638
82	0x3e113c87	0.14183246
83	0xbd18553c	-0.03719066
84	0x3cd6f888	0.026241556
85	0x3d9846cd	0.07435379
86	0x3d6efab7	0.05834457
87	0xbcb37081	-0.021904232
88	0x3e50b2ad	0.2038066
89	0x3d8f1648	0.06986672
90	0xbdf578e4	-0.11985949
91	0xbbb319f6	-0.0054657413
92	0x3e20dbd6	0.15708861
93	0xbddc4079	-0.10754485
94	0xbe4ab7d3	-0.19796686
95	0xbe0a1105	-0.13483055
96	0x3d909df7	0.070613794
97	0xbdfa2da9	-0.1221574
98	0x3e30393f	0.17209338
99	0xbe1ee050	-0.15515256
100	0x3c7c1fb5	0.015388419
101	0x3dd39634	0.10331383
102	0xbe361321	-0.17780735
103	0x3dcd3e53	0.10021653
104	0xbe366f33	-0.17815857
105	0xbdacf990	-0.08446038
106	0xbd735868	-0.059410483
107	0xbe320b87	-0.1738721
108	0x3e2f5b05	0.17124565
109	0xbe15a0d9	-0.1461214
110	0x3decf018	0.11569232
111	0x3e3de321	0.18543674
112	0x3d884e47	0.06655555
113	0xbe381ee9	-0.17980541
114	0xbe4c0ad5	-0.19926007
115	0x3e5ddd59	0.21666469
116	0x3e33667a	0.1751956
117	0x3e04b0fb	0.12958138
118	0xbdebfb5a	-0.11522551
119	0xbe593097	-0.21209942
120	0xbe195bc2	-0.14976409
121	0x3deec707	0.11659055
122	0x3e350f6e	0.17681667
123	0x3e3377bc	0.17526144
124	0x3e2fbd81	0.17162134
125	0xbcecffca	-0.028930563
126	0x3e03db7b	0.12876694
127	0xbc126e25	-0.008937393

arith.constant1 f4 [128, 256]
0	0xbcaf9c90	-0.02143696
1	0x3ddd26e1	0.10798431
2	0x3e088796	0.13332972
3	0xbd9b3919	-0.0757925
4	0xbd775244	-0.06038119
5	0x3dc42cf6	0.09578888
6	0xbc37493c	-0.011186894
7	0xbddfc3d5	-0.10926024
8	0xbd544678	-0.051825017
9	0x3e0f1151	0.1397145
10	0x3df90d73	0.12160768
11	0xbd67c7a1	-0.056586865
12	0xbd1839f1	-0.037164632
13	0xbd84f9a4	-0.06492928
14	0x3cf890fa	0.030342568
15	0x3d421a9a	0.04738865
16	0x3da21b90	0.079154134
17	0x3c408103	0.011749509
18	0x3c79b0f7	0.015239946
19	0xbdc9568d	-0.098309614
20	0xbd51f719	-0.05126104
21	0x3d151b65	0.03640308
22	0x3d640fd6	0.055679165
23	0x3d932ac2	0.0718589
24	0xbde63370	-0.1124028
25	0x3e085cfc	0.1331672
26	0xbd55ebbb	-0.052226763
27	0x3b14a03b	0.0022678513
28	0x3e0ef200	0.13959503
29	0xbd26dda6	-0.040738724
30	0x3e0a5749	0.13509859
31	0xbdb51225	-0.088413514
32	0x3db016a1	0.08598066
33	0xbd053676	-0.03252264
34	0x3cff7f85	0.031188736
35	0xbd32b85e	-0.043632858
36	0x3e1f6e1f	0.15569352
37	0x3ce3fc33	0.027830219
38	0xbda2c631	-0.07947958
39	0x3d686984	0.056741253
40	0xbd648f2a	-0.055800594
41	0x3d484be7	0.04890051
42	0xbd6eb280	-0.0582757
43	0xbc3800b8	-0.01123064
44	0xbd411ef1	-0.04714865
45	0x3d08e483	0.03342105
46	0x3e001b8c	0.12510508
47	0xbdcb05c0	-0.09913206
48	0x3da4f6c4	0.08054879
49	0x3bedf4c8	0.007261846
50	0x3dd37b70	0.10326278
51	0x3c8f7593	0.017512118
52	0xbdbd92a9	-0.09256489
53	0x3e173345	0.14765652
54	0xbdb081a3	-0.08618476
55	0x3d7ba3aa	0.06143538
56	0xbd04a08b	-0.03237967
57	0xbde5e185	-0.11224655
58	0xbd9572ba	-0.07297273
59	0xbd37e6e8	-0.044897944
60	0x3ceb0e6d	0.028693402
61	0xbcad7d33	-0.021177864
62	0x3dabd9ac	0.08391127
63	0xbc0d15de	-0.008611171
64	0xbce7f5cc	-0.028315447
65	0xbb8cae23	-0.0042932197
66	0xbd8d77ad	-0.06907592
67	0xbd09a7b4	-0.0336072
68	0x3d23386f	0.03984874
69	0x3ba62186	0.0050699143
70	0x3c4df4a8	0.012570538
71	0x3dd039e8	0.10167295
72	0xbd6a7001	-0.05723572
73	0x3d632d2f	0.055463012
74	0xbdd90007	-0.10595708
75	0x3d402803	0.04691316
76	0xbc2dc6f3	-0.010606515
77	0x3a6222d3	0.0008626405
78	0xbcfe6d69	-0.03105803
79	0x3da14f4a	0.07876451
80	0xbd442443	-0.047886144
81	0x3d100cfd	0.035168637
82	0xbbf97456	-0.0076127453
83	0x3bbfe3a7	0.0058559957
84	0xbdf3d8d2	-0.119065896
85	0x3d8d821e	0.069095835
86	0x3d0d01a6	0.0344254
87	0x3c42c317	0.011887333
88	0x3dcc0dff	0.09963607
89	0xbd22fcef	-0.039791998
90	0xbdd6fe0f	-0.104976766
91	0x3dcae4bf	0.09906911
92	0xbd74c731	-0.059760276
93	0x3d913b37	0.070913725
94	0xbc3e31a4	-0.011608515
95	0xbc081a5b	-0.008307065
96	0xbdaf2673	-0.085522555
97	0x3e06ce9a	0.1316475
98	0xbe136724	-0.14394814
99	0x3cd50c7a	0.026006926
100	0x3debfc13	0.11522689
101	0x3d838800	0.06422424
102	0xbdc0144a	-0.0937887
103	0x3d459415	0.048236925
104	0x3da88e16	0.08230226
105	0xbce518b2	-0.027965877
106	0x3d32cde9	0.043653402
107	0x3dbae091	0.09124864
108	0xbc1477ec	-0.009061795
109	0xbc60be36	-0.013717225
110	0x3d351aee	0.044215135
111	0xbd7e9ad2	-0.062159367
112	0xbb77fba7	-0.0037839205
113	0xba76602e	-0.0009398487
114	0xbda4eaaa	-0.08052571
115	0xbd6ead55	-0.05827077
116	0xbd1c36dd	-0.03813826
117	0x3db409eb	0.08790954
118	0xbe087fd5	-0.13330014
119	0x3d378db7	0.044812884
120	0x3cbdb3db	0.02315705
121	0x3cfbb6ee	0.030726876
122	0x3dae9b25	0.08525685
123	0x3de25f96	0.11053388
124	0xbbb68e83	-0.005571188
125	0xbcd54103	-0.026031977
126	0x3dc6dff7	0.09710687
127	0xbd9bab05	-0.07600979
128	0xbd8e3f12	-0.069456235
129	0x3d9c8d41	0.076441295
130	0x3e1fb9d6	0.15598235
131	0xbbbdaf75	-0.0057887384
132	0x3d350c51	0.0442012
133	0xbcad3b7b	-0.021146527
134	0xbdfdf3cb	-0.124000154
135	0xbdb80843	-0.08985951
136	0xbbac35a0	-0.005255416
137	0x3d9ddd70	0.077082515
138	0xbd0f5d46	-0.03500106
139	0x3d8e5a11	0.069507726
140	0xbd82798c	-0.063708395
141	0xbdb40b3c	-0.08791205
142	0xbc258e16	-0.010104677
143	0xbe2943e8	-0.1652981
144	0xbc15b434	-0.009137202
145	0xbda0fa42	-0.07860233
146	0x3da111e9	0.07864744
147	0x3c4afd63	0.012389514
148	0xbdb76564	-0.089548856
149	0xbd8697b3	-0.06571903
150	0xbdbf5408	-0.093421996
151	0xbd62403d	-0.055237044
152	0x3e269c2f	0.16270517
153	0x3de82b06	0.11336331
154	0xbd36bf87	-0.04461625
155	0xbd85b9cb	-0.06529578
156	0x3e0a0ace	0.13480684
157	0xbe23c652	-0.15993622
158	0xbd017812	-0.03160865
159	0x3d04a60b	0.032384913
160	0xbdbe9f3b	-0.093077146
161	0xbe33f43f	-0.17573641
162	0x3dc13627	0.09434157
163	0xbdaf28bf	-0.085526936
164	0xbe03706b	-0.12835853
165	0x3dd0767b	0.10178848
166	0x3df2f034	0.11862221
167	0x3e0e5be9	0.13902248
168	0x3b7d2b82	0.003863067
169	0xbde30588	-0.110850394
170	0xbd338b7c	-0.043834195
171	0x3c8274f1	0.015924903
172	0x3d7939cf	0.060846146
173	0x3dd3d6fd	0.1034374
174	0x3b0800b6	0.0020752377
175	0xbd0288cd	-0.031868745
176	0x3d08e880	0.033424854
177	0xbd6caec4	-0.057783857
178	0x3d313f06	0.043272994
179	0x3d2624ef	0.040562566
180	0xbd3c871e	-0.046027295
181	0xbdc00cce	-0.09377442
182	0x3dbadf82	0.09124662
183	0x3d75abd4	0.05997832
184	0xbe00b65f	-0.12569569
185	0x3b381b46	0.0028092428
186	0xbd753c04	-0.05987169
187	0x3d4eb873	0.050468873
188	0xbda903d3	-0.082526825
189	0xbdb08386	-0.08618836
190	0xbdf85f6c	-0.12127575
191	0xbda9dda7	-0.0829423
192	0xbddb6d0f	-0.10714161
193	0xbd4b253a	-0.04959605
194	0x3de76835	0.11299173
195	0xbd88960c	-0.06669244
196	0xbe0189cc	-0.12650222
197	0xbd9445e8	-0.07239896
198	0xbdbd58b4	-0.092454344
199	0x3dc23715	0.09483162
200	0x3e205f88	0.15661442
201	0xbd548694	-0.051886156
202	0xbdb1a18e	-0.08673392
203	0xbd55424d	-0.052065182
204	0xbd87a730	-0.06623685
205	0xbde8289d	-0.11335871
206	0xbd9c5bdf	-0.076347105
207	0xbd4098fc	-0.047020897
208	0xbdffb073	-0.12484827
209	0x3c00044b	0.0078135235
210	0x3de94ee8	0.11392003
211	0xbd0f2371	-0.03494591
212	0xbd1dedee	-0.038556986
213	0xbe076877	-0.13223444
214	0x3e1312f3	0.14362697
215	0xbbe57d44	-0.007003458
216	0x3cebb6dc	0.028773718
217	0xbc5a8cd8	-0.013339244
218	0xbd881855	-0.06645266
219	0xbd995236	-0.074863836
220	0x3d9e2aaa	0.07722981
221	0xbdc42ea8	-0.095792115
222	0x3d3534de	0.04423987
223	0x3defec7c	0.11715028
224	0x3d375b83	0.044765007
225	0x3dd40ca0	0.103539705
226	0x3d9745e7	0.0738638
227	0x3dd0c9cb	0.10194739
228	0x3d6ef589	0.05833963
229	0x3e0a338a	0.13496223
230	0x3d106fda	0.03526292
231	0x3c7033ad	0.014660758
232	0x3c3ea557	0.0116361
233	0xbd7dfef9	-0.06201074
234	0xbd31aa29	-0.043375168
235	0xbdb7d551	-0.08976234
236	0x3d97c063	0.07409742
237	0x3d917036	0.07101481
238	0x3d303462	0.043018706
239	0x3c1a2b98	0.009409808
240	0x3d891f77	0.066954546
241	0x3de8ed98	0.113734424
242	0xbbec8fa6	-0.0072192727
243	0x3e36fab1	0.17869069
244	0xbb20af1f	-0.0024518443
245	0x3c3e512a	0.011616031
246	0x3ce9df8b	0.028548976
247	0x3c9d303d	0.01918804
248	0x3d2faa11	0.042886797
249	0xbb788c38	-0.0037925374
250	0x3d22cac6	0.03974416
251	0x3e1d6f5b	0.1537451
252	0xbd4c7e73	-0.04992528
253	0x3bc94779	0.0061425534
254	0x3da4c305	0.080450095
255	0xbcbc3b73	-0.022977566

sequential_1/dense_1_2/BiasAdd/ReadVariableOp f4 [128]
0	0x3cd77d6d	0.026304925
1	0xba7eff33	-0.00097273587
2	0xbb837a3c	-0.004012374
3	0x3c84dafd	0.016217703
4	0x3b855442	0.004068882
5	0x3bf9edde	0.007627233
6	0xbbd74722	-0.006569759
7	0x3c5282ee	0.012848599
8	0x3bca37f6	0.006171222
9	0x3acc8ff5	0.0015606867
10	0x3c4342d0	0.011917785
11	0x3cfaa6a9	0.030597048
12	0x3ca1f5a7	0.019770456
13	0x3d3efaa0	0.046625733
14	0xbaba718d	-0.0014224515
15	0x3a349938	0.00068892865
16	0x3b2bd13a	0.0026217238
17	0xbcbd829b	-0.023133567
18	0xbabe18e7	-0.0014503271
19	0x3bf532c7	0.00748286
20	0x3bc8b36d	0.006124905
21	0x3920908d	0.00015312638
22	0x39b6c328	0.00034859148
23	0xbbbbb7b6	-0.005728687
24	0x3becb36d	0.0072235377
25	0x3c70c43e	0.014695225
26	0x3b295f74	0.0025844248
27	0x3cb9decd	0.022689248
28	0x3c83cef5	0.016089896
29	0xbc3ae786	-0.011407739
30	0xb87c9eac	-6.0229257e-05
31	0x3d8bb26c	0.06821141
32	0x3c293c5f	0.010329335
33	0x3c96933a	0.01838075
34	0x3c856cba	0.016287196
35	0xbbccfb89	-0.0062555713
36	0xbc878d71	-0.016546937
37	0xbba391d4	-0.0049917493
38	0x3c038510	0.00802733
39	0x3d03bc81	0.032162193
40	0x3c8129d9	0.015767025
41	0xbbb90fd2	-0.005647638
42	0xbca325a9	-0.019915419
43	0x3af88b84	0.0018962477
44	0x3cc7ceb4	0.024390556
45	0xbac12f3c	-0.0014738808
46	0x3acf7455	0.0015827516
47	0x3a8d7aa4	0.0010793996
48	0x3c18a9f5	0.009317865
49	0xbc63e6f0	-0.01391004
50	0x3d0a0da3	0.03370441
51	0xbb416e8b	-0.0029515352
52	0xbc304dab	-0.010760705
53	0xbaeef361	-0.0018230492
54	0x3be34da0	0.006936744
55	0x3be708bc	0.0070506018
56	0x3c97b9bd	0.018521184
57	0xbc35c2f2	-0.011093842
58	0x3b9875c4	0.0046527106
59	0x3d0b53ba	0.034015395
60	0xbc497a44	-0.012297217
61	0xbc94fea1	-0.018187823
62	0x3c61cb18	0.0137813315
63	0xba6e02c8	-0.0009079394
64	0x3b95ff3d	0.004577546
65	0x3c272b0a	0.010203132
66	0x3c077366	0.008267259
67	0x3b56d7a4	0.003278234
68	0xbc210530	-0.009827897
69	0xbb67c0e3	-0.0035362772
70	0x3ce90874	0.028446414
71	0xbbe7001b	-0.007049573
72	0xbc5e3f6b	-0.013564925
73	0x3cd14448	0.025545254
74	0xbc44f705	-0.012021785
75	0x3b358b08	0.0027701277
76	0x3d12f1f2	0.03587527
77	0xbb66e9ce	-0.0035234573
78	0x3c3680f2	0.011139141
79	0x3c4db951	0.01255639
80	0x3bdbc628	0.0067069717
81	0x3c834c4d	0.016027594
82	0xbc8065d7	-0.015673561
83	0x3d02398a	0.031793155
84	0xbbd01ea5	-0.0063513094
85	0xbc713975	-0.0147231715
86	0x3adb346e	0.0016723999
87	0xba1388c6	-0.0005627986
88	0x3acae984	0.001548097
89	0xbc911b05	-0.01771308
90	0xbad6a251	-0.0016375278
91	0xbc18e455	-0.009331782
92	0xbc160c46	-0.0091582
93	0x3c40157d	0.011723873
94	0x3c14af6d	0.009075028
95	0x3c302ac0	0.01075238
96	0x3c375668	0.011190034
97	0x3b54c305	0.0032464874
98	0x3d0baf2f	0.034102615
99	0x3c456c6d	0.0120497765
100	0xbcb4bb06	-0.022061836
101	0x3af209a5	0.0018466009
102	0x3d1bd4d5	0.03804477
103	0xbb1411b3	-0.0022593557
104	0x3b7bb737	0.0038408765
105	0x3c8012ba	0.01563393
106	0x3c24e04a	0.01006324
107	0x3c701097	0.014652393
108	0x3c2b2cf0	0.010447726
109	0x3b8eb827	0.0043554488
110	0xba101084	-0.0005495625
111	0x3cf31279	0.029671894
112	0x3b5b42b4	0.0033456506
113	0x3b28595a	0.0025688023
114	0x3c6814b7	0.014165095
115	0xbc62571d	-0.013814715
116	0x3bde5a31	0.006785654
117	0xbbcf8407	-0.0063328776
118	0x3c14c1f0	0.009079441
119	0x3c476244	0.012169424
120	0x3b2f94a5	0.002679148
121	0xbcbf173d	-0.02332651
122	0xba721742	-0.0009235033
123	0xb980ed7c	-0.00024591002
124	0xbb40d83d	-0.0029425763
125	0x3c410ee4	0.011783335
126	0x3c652add	0.01398727
127	0x3ce5062f	0.02795705

sequential_1/dense_1/BiasAdd/ReadVariableOp f4 [256]
0	0x3cd27237	0.025689228
1	0xbc882b8e	-0.016622331
2	0xbbfec2ac	-0.0077746715
3	0xbc80727d	-0.015679592
4	0xbd359b8f	-0.044337805
5	0xbb1486f0	-0.0022663437
6	0xbc59e1c3	-0.013298455
7	0xbc35af2b	-0.011089127
8	0xbd259f59	-0.04043517
9	0xbc36d7ac	-0.011159819
10	0xbd0ee37b	-0.03488491
11	0x3c059f6b	0.008155684
12	0xbc938634	-0.018008329
13	0xbd00353b	-0.031300765
14	0xbb656d81	-0.0035007896
15	0xbbe9e317	-0.007137667
16	0x3c60f728	0.013730802
17	0xbd06b71d	-0.032889474
18	0xbcdc9899	-0.026928233
19	0xbc5e6616	-0.013574144
20	0xbceea502	-0.029131416
21	0xbafb563b	-0.0019175479
22	0xbccb9dff	-0.024855612
23	0xbc9287e0	-0.017887056
24	0xbb14ee6e	-0.0022725123
25	0xbc45ede5	-0.012080644
26	0xbced1657	-0.028941317
27	0xbbfd4df0	-0.007730238
28	0xbb1bfd8c	-0.0023802249
29	0xbcc73015	-0.02431492
30	0xbc861bd6	-0.016370695
31	0xbcc0741e	-0.023492869
32	0xbc4c51b3	-0.0124706505
33	0x3c966222	0.01835734
34	0xbc9d45bb	-0.01919829
35	0xbbe19de5	-0.0068852776
36	0xbc9d37e4	-0.01919169
37	0xbca46c51	-0.02007118
38	0x3bb1149c	0.005404068
39	0xbca2ee50	-0.019889027
40	0xbb9af27e	-0.0047286144
41	0xbcbf9132	-0.023384664
42	0xbbe0d6b8	-0.006861534
43	0xbd076299	-0.033053014
44	0x3beab4ed	0.0071626813
45	0x3c8d4a98	0.017247483
46	0xbcb95ec9	-0.022628205
47	0xbd08e6f0	-0.033423364
48	0xbc296116	-0.0103380885
49	0xbc9ac279	-0.01889156
50	0xbd2cec96	-0.042217813
51	0xbb9344d7	-0.0044942903
52	0x3d248950	0.040170014
53	0xbcebe6e8	-0.028796628
54	0xbd5aeb22	-0.053446896
55	0x3ccbb002	0.0248642
56	0xbaf65f66	-0.0018796741
57	0x3b604d98	0.0034225937
58	0xbd324cfe	-0.043530457
59	0x3cd84e3d	0.026404494
60	0xbc816f5f	-0.015800176
61	0xbb81f62a	-0.0039661126
62	0xbcd0ceab	-0.025489172
63	0xbcad130d	-0.021127248
64	0xbca3336b	-0.019921979
65	0xbcadc6d8	-0.02121298
66	0x3b99ddd8	0.0046956353
67	0x3bfe1c43	0.007754834
68	0xbad69e2c	-0.0016374043
69	0xbba6d6ed	-0.005091539
70	0x3b14326e	0.0022613066
71	0xbcb88e6d	-0.022528851
72	0x3d1fdce5	0.03902902
73	0x3d154ab0	0.03644818
74	0xbc87adfc	-0.016562454
75	0xbd016a90	-0.031595767
76	0xbcc5fc90	-0.024168283
77	0x3cd523ac	0.026017986
78	0xbd32079e	-0.043464296
79	0x3ba26b18	0.004956614
80	0xbce8d7f9	-0.028423296
81	0x3ae85be3	0.001772758
82	0xbbcb3d2e	-0.0062023615
83	0xbc6e38ee	-0.01453994
84	0xbc28d003	-0.0103035
85	0x3da5f578	0.0810346
86	0xbc6b152d	-0.01434831
87	0xbd03d210	-0.032182753
88	0xbd4cbc96	-0.049984537
89	0xbd37cc69	-0.044872675
90	0x3d21480e	0.039375357
91	0xbc5d4f3c	-0.0135076605
92	0xbc040b82	-0.008059384
93	0xbd022f1a	-0.0317832
94	0x3c146e88	0.009059556
95	0x3bb7a270	0.005604081
96	0xbc23e99a	-0.010004425
97	0xbc586bd7	-0.013209305
98	0x3c675f7b	0.014121885
99	0xbc63a2c9	-0.0138937915
100	0x3c85cb62	0.016332332
101	0x3d6868c4	0.056740537
102	0x3c489832	0.012243317
103	0xbc6648bf	-0.01405543
104	0xbcb5dc10	-0.02219966
105	0x3b50d5bb	0.0031865675
106	0xbcbae8bf	-0.02281606
107	0xbc1e9878	-0.009679906
108	0xbc28598d	-0.010275257
109	0xbbe57e0f	-0.0070035527
110	0xbd0f7689	-0.035025153
111	0xbc0b4c2d	-0.008502048
112	0xbc93a8b3	-0.018024778
113	0xbc55a2e7	-0.013039327
114	0xba33911a	-0.000684993
115	0x3cc8fe61	0.02453536
116	0xbd064f2a	-0.03279034
117	0x3ba48972	0.0050212676
118	0x3c58c3a9	0.013230243
119	0xbd08b66d	-0.0333771
120	0xbc7df42d	-0.015500111
121	0xbcb51263	-0.022103494
122	0xbb60a4d3	-0.003427793
123	0xbd26f98f	-0.04076534
124	0x3c24f566	0.010068273
125	0xbd01a4ab	-0.03165118
126	0xbcb0dfa6	-0.021591019
127	0x3c06578d	0.008199585
128	0xbd1c137a	-0.03810451
129	0xbd13f69c	-0.036123857
130	0xbcdeb59f	-0.027186213
131	0xbcf7c433	-0.030244922
132	0xbc455776	-0.012044778
133	0xbc572067	-0.013130284
134	0xbc8d21df	-0.017228065
135	0xbcb5f619	-0.022212075
136	0xbcbb8ecf	-0.022895245
137	0xbc90b8f1	-0.017666312
138	0xbc2cff78	-0.010558955
139	0x3cbc7c1a	0.023008395
140	0xbcbef07d	-0.023308033
141	0xbbe91534	-0.0071131233
142	0xbbfff987	-0.0078117284
143	0x3d84b751	0.06480277
144	0xbca34a0b	-0.019932767
145	0xbcbf1b73	-0.023328518
146	0x3c557d7c	0.013030406
147	0x3c02f8ec	0.007993918
148	0xbaa9658a	-0.0012923938
149	0xbd40d98a	-0.04708246
150	0xbcbaf2ed	-0.022820914
151	0xbd0353fa	-0.03206251
152	0xbd203bb9	-0.039119456
153	0xbd27e55e	-0.040990226
154	0x3bb41fd3	0.005496958
155	0xbb45b529	-0.0030167794
156	0x3c7e2ff1	0.01551436
157	0x3c157aa1	0.009123475
158	0x3ca25c82	0.019819502
159	0xbcdfe63b	-0.027331462
160	0xbcdb02d9	-0.026734756
161	0x3d02cc6d	0.031933237
162	0xbcd10113	-0.025513208
163	0xbc91b855	-0.017788092
164	0x3c79248c	0.015206467
165	0xbc64ce38	-0.013965182
166	0xbcdb81c4	-0.026795276
167	0xbc9e665d	-0.01933592
168	0xbd0305f1	-0.031988088
169	0xbc2ccf10	-0.010547414
170	0xbbd75f5e	-0.006572648
171	0xbd5a6c01	-0.053325657
172	0xbc5e5802	-0.013570787
173	0x3c0e8a28	0.008699931
174	0xbc883165	-0.016625116
175	0xbd0bb3c0	-0.03410697
176	0xbbffeb67	-0.0078100446
177	0xbc20b3c2	-0.009808483
178	0xbcab5dc1	-0.020918729
179	0x3d28860f	0.041143473
180	0xbd248054	-0.040161446
181	0x3caf05ce	0.021365073
182	0xbb8b0f8a	-0.0042437958
183	0xbd303ce2	-0.043026812
184	0x3b433ebd	0.0029792034
185	0x3cd2d1fa	0.02573489
186	0xbc518a2e	-0.012789292
187	0xbc96f7ae	-0.01842865
188	0xbc957d13	-0.018248117
189	0xbcc449ea	-0.023961026
190	0xbbaeef04	-0.0053385515
191	0xbd01a840	-0.031654596
192	0xbc4abb81	-0.012373806
193	0x3c83aabe	0.016072627
194	0xbcc84fe5	-0.02445216
195	0x3cdcba04	0.026944168
196	0x3cbe1f69	0.023208337
197	0xbba3aed1	-0.004995205
198	0xbb72fd97	-0.003707742
199	0xbc4497b2	-0.011999058
200	0xbd10e66a	-0.03537599
201	0x3b8e6b7d	0.0043463097
202	0x3c1aa7d2	0.009439426
203	0x3be4a703	0.006977917
204	0xbcb7a23e	-0.02241623
205	0x3c33ea2f	0.010981127
206	0xbd133443	-0.035938513
207	0x3b19c5e2	0.0023463895
208	0x3ce42ff2	0.027854893
209	0x3d20e4a7	0.03928056
210	0xbc7b19c6	-0.015325969
211	0xbcc787a2	-0.024356667
212	0xbcabad3c	-0.020956628
213	0xbd44ace0	-0.04801643
214	0xba8b401e	-0.0010623967
215	0x3c719381	0.01474464
216	0xba6ad143	-0.0008957574
217	0xbc332e31	-0.010936306
218	0xbb86db8c	-0.0041155275
219	0xbd20eb17	-0.0392867
220	0x3bc43250	0.005987443
221	0xbb7ad580	-0.0038274229
222	0xbbf97a12	-0.007613429
223	0x3c606982	0.01369703
224	0xbcb2c7d1	-0.021823796
225	0x3c47696d	0.012171132
226	0xbb34dbab	-0.0027596753
227	0xbcc7e5d3	-0.02440158
228	0xbc863b88	-0.016385809
229	0xbccfdf02	-0.025374893
230	0xbc69a275	-0.014259924
231	0xbce16872	-0.027515624
232	0x3c951c03	0.018201834
233	0xbc5bcd05	-0.01341558
234	0xbcdec5e8	-0.027193978
235	0x3b753a88	0.003741892
236	0xbd07c1b2	-0.033143707
237	0x3c7f7bb6	0.01559346
238	0xbba34c08	-0.004983429
239	0xbc6018f9	-0.013677829
240	0x3c607b85	0.013701324
241	0xbc82cc0e	-0.015966441
242	0xbb793c02	-0.0038030152
243	0xbc6f5f8c	-0.0146101825
244	0x3bfb91b8	0.007677283
245	0xba3df420	-0.00072461553
246	0xbc47021a	-0.012146497
247	0x3cb20293	0.021729743
248	0xbd09fdab	-0.033689182
249	0xbb336a87	-0.0027376728
250	0xbd581ee4	-0.052763835
251	0xbccbd5a9	-0.024882155
252	0x39bbe6a9	0.00035839275
253	0xbc26573c	-0.010152634
254	0x3c577d05	0.013152366
255	0xbcb172ed	-0.021661246

sequential_1/dense_1/MatMul f4 [256, 215]
0	0xbd668681	-0.056280617
1	0xbca329d7	-0.019917412
2	0x3da73727	0.08164816
3	0xbd982996	-0.07429807
4	0x3cf14be2	0.029455129
5	0xbd0826dc	-0.033240184
6	0x3df88403	0.12134554
7	0x3d1f2625	0.038854737
8	0xbdc174de	-0.09446119
9	0xbda7f9a9	-0.08201916
10	0xbc6f2d9c	-0.0145982765
11	0xbd5a94cd	-0.053364564
12	0xbd5e6ca1	-0.054302815
13	0xbbd0f25d	-0.006376548
14	0x3cab5242	0.020913247
15	0xbcefdc69	-0.029279904
16	0x3dba7d2a	0.091059044
17	0x3d52f374	0.051501706
18	0xbdc5b0d2	-0.096528664
19	0x3d500ce7	0.050793555
20	0x3b229bff	0.002481222
21	0xbcf7f093	-0.030266082
22	0x3de7374e	0.112898454
23	0x3d819179	0.06326575
24	0xbd1a958e	-0.037740283
25	0x3d39585d	0.045250285
26	0xbdc78f1c	-0.09744093
27	0xbd926ee0	-0.07150054
28	0x3d6cd053	0.05781586
29	0x3db5f17c	0.0888395
30	0x3e214878	0.15750301
31	0xbd7695c8	-0.060201436
32	0x3d11f630	0.035635173
33	0x3be8e70a	0.00710762
34	0xbd5c22cb	-0.05374412
35	0xbd42653b	-0.047459822
36	0x3c10d6ce	0.008840276
37	0xbd60c1a4	-0.05487217
38	0xbd0ce0b4	-0.03439398
39	0x3cfb5fb5	0.030685285
40	0xbdea8d52	-0.11452736
41	0x3e169688	0.1470586
42	0x3da098e6	0.07841663
43	0x3de1b29f	0.110203974
44	0x3c232356	0.009957155
45	0x3d9fef27	0.078092866
46	0x3db07188	0.08615404
47	0x3c95ae6e	0.018271651
48	0xbe1e5df2	-0.15465525
49	0xbd5f2adb	-0.05448423
50	0x3d500d47	0.050793912
51	0x3e039db9	0.12853135
52	0x3e085f1d	0.13317533
53	0xbd5d3d45	-0.05401351
54	0x3dcab256	0.09897296
55	0xbe145709	-0.14486326
56	0xbd7ccabf	-0.06171679
57	0xbdba5efb	-0.09100147
58	0x3c9ce43f	0.019151805
59	0xbdb4d7ca	-0.08830221
60	0xbe16c274	-0.14722615
61	0x3b112094	0.0022144662
62	0xbde5054e	-0.111826524
63	0x3d0801db	0.033204895
64	0x3d56196f	0.05227035
65	0xbd29346d	-0.041309763
66	0xbe06d5ce	-0.13167498
67	0xbd0c8712	-0.0343085
68	0x3deb248c	0.1148158
69	0xbe16c2d2	-0.14722756
70	0xbdb4b3ca	-0.088233545
71	0xbd8c5c10	-0.06853497
72	0xbda46394	-0.080268055
73	0x3c0be887	0.008539326
74	0x3d89dd6d	0.06731687
75	0xbdb90486	-0.09034066
76	0x3d2d610d	0.042328883
77	0x3de63e34	0.11242333
78	0x3c47073a	0.012147719
79	0xbcfd3456	-0.030908745
80	0xbd36f6df	-0.04466903
81	0xbd6ebbad	-0.05828445
82	0x3d8eb515	0.069681324
83	0xbcc84c4f	-0.02445045
84	0xbdd6a178	-0.104800165
85	0xbe018db0	-0.12651706
86	0x3dbf16f2	0.09330548
87	0x3d081a1e	0.033228032
88	0x3d7a5cb2	0.061123557
89	0x3d9f4468	0.07776719
90	0xbe184769	-0.14870991
91	0xba0ff396	-0.0005491314
92	0x3d4b7a62	0.04967726
93	0xbde5484a	-0.11195429
94	0xbd53afd0	-0.05168134
95	0xbd8a4858	-0.0675208
96	0x3d9c024d	0.07617626
97	0x3c8d971f	0.017283974
98	0xbd491ccb	-0.049099725
99	0xbcd48745	-0.025943408
100	0x3dd0b0e0	0.10189986
101	0xbd8d70ae	-0.069062576
102	0xbc307c66	-0.010771846
103	0x3d2f8f89	0.042861495
104	0xbcc9286a	-0.024555404
105	0xbd67659a	-0.05649338
106	0x3cf52dec	0.029929124
107	0x3c39fb5d	0.011351434
108	0xbca6fa86	-0.02038313
109	0xbb67b090	-0.0035353042
110	0x3d225567	0.039632227
111	0x3d446cff	0.04795551
112	0xbc25ca12	-0.010118978
113	0x3dba30ef	0.090913646
114	0xbdda23b8	-0.10651344
115	0xbdb4cb90	-0.08827889
116	0x3c801123	0.015633171
117	0x3c2e853c	0.010651883
118	0xbe0c85fb	-0.13722984
119	0xbc4554c8	-0.012044139
120	0xbd11664d	-0.035497952
121	0x3d8672c7	0.06564861
122	0x3d0df393	0.03465612
123	0xbd85a7c7	-0.065261416
124	0xbe076ff4	-0.132263
125	0x3d17dec3	0.037077677
126	0xbd6cd01e	-0.057815664
127	0xbe00f280	-0.12592506
128	0x3dc804c2	0.097665325
129	0xbc5dcd88	-0.013537772
130	0x3d4a6224	0.04941
131	0xbd47c892	-0.048775263
132	0x3cf780b9	0.030212747
133	0x3b9bbf97	0.004753064
134	0x3c64cff8	0.013965599
135	0x3c23de29	0.010001698
136	0x3c6458af	0.013937159
137	0x3d8f1bd2	0.06987728
138	0x3d8a8623	0.06763866
139	0xbd832e05	-0.06405262
140	0xbe043919	-0.12912406
141	0xbac156fc	-0.0014750655
142	0xbd5d7da6	-0.054074906
143	0xbce7e0cb	-0.028305432
144	0xbde21ee7	-0.110410504
145	0x3db86be1	0.09004951
146	0x3d894502	0.06702615
147	0x3ce34199	0.02774124
148	0x3dc405f1	0.09571446
149	0xbd837e32	-0.06420554
150	0x3c9c33ea	0.019067723
151	0xbdbe8ad8	-0.09303826
152	0xbd3e02c1	-0.046389345
153	0xbdffb2a9	-0.124852486
154	0x3d62d142	0.055375345
155	0x3d0717a6	0.032981537
156	0x3dab917b	0.083773576
157	0xbd7c6936	-0.061623774
158	0x3c84bf46	0.016204488
159	0xbc6ffcbc	-0.014647659
160	0xbb7f33ec	-0.003894086
161	0x3ced78dd	0.028988296
162	0xbdc64513	-0.096811436
163	0xbdfba376	-0.12287037
164	0x3c906520	0.017626345
165	0xbe09ebf7	-0.1346892
166	0xbd08f8ee	-0.033440523
167	0xbcc193d5	-0.023630062
168	0x3c803c5c	0.015653782
169	0xbd8555ee	-0.065105304
170	0xbd794692	-0.060858317
171	0x3ddf5d8d	0.10906515
172	0x3d95a4cf	0.07306825
173	0xbddb6d39	-0.10714192
174	0x3cb030a8	0.021507576
175	0xbd406492	-0.04697091
176	0xbcd825b4	-0.026385166
177	0xbd2ae5a9	-0.041722927
178	0xbc1410db	-0.009037222
179	0x3d07d330	0.03316039
180	0x3c74ec7a	0.0149489585
181	0xbd2584d6	-0.040409885
182	0xbd6d9a45	-0.05800845
183	0x3cd19784	0.025584944
184	0x3dc9d702	0.098554626
185	0xbd8d8344	-0.069098026
186	0x3bf85055	0.0075779357
187	0x3d012796	0.031531893
188	0xbdc8e09a	-0.09808464
189	0x3d1343da	0.03595338
190	0xbd32b1d7	-0.043626633
191	0xbd2bca20	-0.04194081
192	0xbcb8dd84	-0.022566564
193	0xbd805252	-0.06265701
194	0xbd20b933	-0.03923912
195	0xbdc75f66	-0.09734993
196	0xbd8c1364	-0.06839636
197	0x3ce6f59b	0.028193286
198	0xbca99292	-0.020699773
199	0x3d8a708e	0.06759749
200	0xbdad9324	-0.084753305
201	0x3d22f9ff	0.039789196
202	0x3da9422f	0.08264577
203	0x3d8db2f2	0.06918897
204	0x3d003535	0.031300742
205	0x3c94b685	0.018153438
206	0xbd38396a	-0.04497663
207	0xbd455a6c	-0.048181936
208	0xbd923b1c	-0.071401805
209	0x3d19f72b	0.037589233
210	0xbd903b17	-0.070425205
211	0x3d9a4e15	0.07534424
212	0xbcdc04d5	-0.026857773
213	0xbd6c6c35	-0.05772038
214	0xbd6bb9ed	-0.05755036
215	0xbd40e6f7	-0.047095265
216	0x3d966995	0.07344357
217	0xbcf8eed2	-0.030387316
218	0x3d470c6b	0.048595827
219	0xbd2e81da	-0.042604305
220	0x3d2f65ad	0.042821575
221	0x3de8a7dd	0.113601424
222	0xbdf705a6	-0.12061624
223	0xbd0f72a1	-0.035021428
224	0x3e0f5b71	0.13999726
225	0xbd0c220c	-0.034212157
226	0x3b1e59a3	0.0024162314
227	0x3dd34054	0.10315004
228	0x3dbceb1f	0.09224533
229	0x3dd8a324	0.105779916
230	0xbcb13880	-0.021633387
231	0x3dcaf758	0.09910458
232	0xbdc8cd53	-0.098047875
233	0x3d9cff24	0.07665852
234	0xbdc4e0d2	-0.096131936
235	0xbc8975a8	-0.016779736
236	0x3d6630ba	0.056198813
237	0x3ca8986f	0.020580499
238	0xbd4a4a99	-0.049387548
239	0x3da582e3	0.08081605
240	0xbd614925	-0.055001397
241	0xbd71df1d	-0.059050668
242	0xbdc3758d	-0.095439054
243	0x3c32e5e8	0.010919072
244	0x3d737f1f	0.059447404
245	0xbd3464c9	-0.04404143
246	0x3dc0bc0c	0.09410867
247	0xbda4a0bf	-0.080384724
248	0xbda1c673	-0.07899179
249	0x3db4b04a	0.08822687
250	0xbce3b564	-0.027796455
251	0xbdb16a60	-0.086628675
252	0xbd249cda	-0.040188648
253	0x3d4ca25e	0.049959533
254	0x3c5a44c0	0.013322055
255	0x3dd1f1a7	0.1025117
